my_image_classifier.onnx (onnx, 258050 bytes, 10 tensors)

conv1.weight f4 [6, 1, 5, 5]
00000000: 0043 c4ba 32ba db3d 458f 28be 66b8 16be
00000010: 5dc2 9dbd acac 5b3d 00d9 81bb 3f62 223e
00000020: f065 91bc 44c5 583d ac92 77bd c006 21bd
00000030: c7a7 43be a8a2 07be bad8 a8bd c0c4 f23b
00000040: e6ed a13d f2c4 f53d a4d7 0abe 975d b2bd
00000050: 12c6 943d 3f10 2a3e 6c97 28bd 1741 193e
00000060: 980a 04bd a85d ad3c 0971 393e a5fc 3dbe
00000070: eced 00be 9864 4fbd 7da9 9fbd 87f2 303e
00000080: 48bf 04be 678d bcbd e214 0fbe c5ce 3fbe
00000090: a019 efbd b10b 303e 62c5 b63d 9a85 c63d
000000a0: 0055 2c3c c3fe d1bd 9898 0a3d 7f38 3fbe
000000b0: 48fb 13be 3d29 d3bd 5137 013e 3e28 f03d
000000c0: d3a7 b5bd 4078 ecbb 67fb 023e 3599 4b3e
000000d0: 1e90 a23d 1056 dd3c cb50 093e 672c f1bd
000000e0: 2ca7 183d 56c8 1ebe adf1 0dbe b797 d3bd
000000f0: 3e55 b93d 92b9 a43d aaa0 f2bd 747c 773d
00000100: e2db e03d 68cb cebc 003a fa3b 00d0 3d3d
00000110: 321b fe3d d3a5 443e ded2 1dbe 241b 96bd
00000120: 12fa a03d d9af 293e ed37 323e e9b4 343e
00000130: 6008 233d 2d17 32be 70b8 963c bd1f 00be
00000140: 3ddd 3ebe 99f6 353e c1b8 1b3e 324b 4cbe
00000150: d454 193d a000 0abd f8ce 06bd 4a7f bbbd
00000160: a283 9d3d 879b f2bd e227 963d 5623 cf3d
00000170: 499c 123e 6e27 993d a2b2 4abe 66da 04be
00000180: fa84 cc3d ac75 2b3d dec2 1fbe 0ddb ebbd
00000190: 5baa 403e 77ff 093e 8d98 b2bd 202e 4ebd
000001a0: 9317 43be 4097 6bbb fa39 1abe 4ef9 1dbe
000001b0: e08c 34bc 68ff f53c 5dbe a7bd 260c f33d
000001c0: f341 f9bd 53d4 393e 7359 0c3e 50b4 2cbe
000001d0: d4e2 4bbd a0db 133c 580b ef3c 0c4b 423d
000001e0: 16bd a03d e047 443c 0adb c7bd 76d1 c13d
000001f0: 4574 44be cdc5 f2bd f811 4dbd 8a85 c7bd
00000200: b04a 8fbd c8db 27be 9841 2ebd f81b 2f3d
00000210: 926b 05be d029 28bc 339b 123e 906d a8bc
00000220: a023 b63b d057 8dbc 74ca 253d 4d38 023e
00000230: fbfe 413e 390f 023e 9d70 423e d0fb 6cbc
00000240: ebf9 37be 9a2e c2bd 0b73 0b3e 00ef a9ba
00000250: 1797 cbbd cef0 1cbe
-0.0014973581 0.10728873 -0.16460903 -0.1471878 -0.077030875 0.05363147 -0.003962636 0.1585779
-0.017748803 0.052922502 -0.06044261 -0.039313078 -0.1910697 -0.13245642 -0.08244462 0.0074087083
0.07906704 0.12000455 -0.13558823 -0.08709257 0.072643414 0.1660776 -0.041160032 0.14966236
-0.032236665 0.021162823 0.18109526 -0.18553407 -0.1259076 -0.050633043 -0.07795999 0.17280017
-0.12963593 -0.09206658 -0.1397281 -0.1873122 -0.116748095 0.1719196 0.089243665 0.09693451
0.010518312 -0.1025367 0.03383693 -0.18673895 -0.14451325 -0.103106 0.12618758 0.117264256
-0.088699006 -0.0072164834 0.12791215 0.19882663 0.079376444 0.027018577 0.13409726 -0.11776047
0.037268803 -0.1550611 -0.13861723 -0.10331672 0.09049462 0.08043207 -0.118470505 0.060421422
0.10979439 -0.025243476 0.0076363087 0.046340942 0.12407531 0.19203882 -0.1541247 -0.073293954
0.07860197 0.16570987 0.17404146 0.17647137 0.03980291 -0.17391653 0.018398494 -0.12512107
-0.18639083 0.17769851 0.15207197 -0.1995056 0.037434414 -0.033692002 -0.032912225 -0.09155138
0.076911226 -0.11846071 0.07331826 0.10114162 0.1431743 0.07478224 -0.19794706 -0.12973937
0.09986301 0.041860268 -0.1560168 -0.1151639 0.18814985 0.13476358 -0.08720503 -0.050336957
-0.19051962 -0.0035948306 -0.15061179 -0.15427133 -0.011019915 0.030029014 -0.08190606 0.118675515
-0.12170782 0.18147402 0.13705997 -0.16865659 -0.049776867 0.009024531 0.029180214 0.04743485
0.07848565 0.011980027 -0.09758575 0.0946378 -0.19184978 -0.11854134 -0.050065964 -0.097422674
-0.069966674 -0.16392434 -0.042543024 0.042751282 -0.13029316 -0.010263875 0.14317016 -0.020560056
0.005558446 -0.017253786 0.040476277 0.1271679 0.18944924 0.1270112 0.18988271 -0.014464334
-0.1796643 -0.09481545 0.13618104 -0.0012964904 -0.099409275 -0.15326235

conv1.bias f4 [6]
00000000: 9aa9 3fbe 57da 2cbe f429 26bd 8aa0 e03d
00000010: 5272 dd3d 0284 45be
-0.18717042 -0.16880165 -0.040567353 0.109681204 0.108128205 -0.19288638

conv2.weight f4 [16, 6, 5, 5]
00000000: a49d 503d 9ed9 82bd 2868 8dbc e59a 07bd
00000010: d8d5 80bc 1c54 83bc b30d 96bd ff61 90bd
00000020: 8054 51bc 8066 8a3a 24ed 17bd dcf6 fb3c
00000030: a581 96bd d08f b4bb 220e 933d 086a 08bd
00000040: b4ff 963d 383c f23c 7ee8 96bd f098 533d
00000050: 685e 1abc 834b 15bd 82b7 853d e420 87bd
00000060: 088c 0f3c 900a 8cbc 60d3 6e3d 68b6 ba3c
00000070: e2b2 203d 0838 ec3c e8d8 a0bc f8aa 8cbc
00000080: 3acd 89bd 7436 353d 90c4 843d 84d4 643d
00000090: 94e7 6bbd 60a7 6e3b 8dc1 6bbd 2f1a 38bd
000000a0: d7e0 42bd 9895 e43c a14b 47bd c07c e9ba
000000b0: 401b 613b f895 573d c2ce 7cbd 5898 65bd
000000c0: d831 42bd 6815 6a3d d26f f0bc 020c 8d3d
000000d0: b0de f13c c864 293c 0055 1fba 5c39 84bc
000000e0: a8d7 273c dcbb 98bc 0065 16ba f8af 2a3c
000000f0: 96cc 82bd f849 2fbd 1a07 873d a4b4 87bd
00000100: 001e c0bb 466b a53d 409f f13c c080 173b
00000110: c9e9 90bd 36ac 253d 8a36 6ebd 92de bdbc
00000120: 0c6b e0bc 881a 46bc 801f 6a3a 50ec 893d
00000130: c000 273c c4c6 953d 4c94 4c3d 8d6f 53bd
00000140: 12ff 153d 8669 6cbd 29be 0dbd 24bb c43c
00000150: 60db dc3c 70e7 7a3d 3852 d7bc 0010 0939
00000160: 122d 2c3d 38b7 a1bd a0ca 713d d846 8abd
00000170: 0080 933a 8870 63bc 9123 30bd c0cf 303c
00000180: b046 8a3d 6286 c3bc a48d 46bd 2660 f7bc
00000190: 04bd a5bd 7ef6 163d 339e 20bd ec2e 5fbd
000001a0: 6dab 40bd 5c49 403d ea1b 313d 0858 803d
000001b0: b89d f23c 8060 dfbc 66ea babc fc9a c53c
000001c0: 9c75 893d 94dc b53c c13c 1ebd 1636 1dbd
000001d0: 9419 9ebd 4882 903c 21ae 3bbd 8616 95bd
000001e0: 46a1 923d e82f 59bd 302f 18bc cca0 bf3c
000001f0: 4079 2a3b 5c09 61bd 962a 87bd 7449 853d
00000200: 50d6 593c 84ba 8a3d d63b e0bc 3c05 c53c
00000210: a0f4 98bc 00f7 6dbb daaf 4bbd bc36 e23c
00000220: a479 d33c 40c4 dcba 646e 96bc 2d28 4ebd
00000230: 3447 673d 86f6 78bd de01 093d 48e9 e0bc
00000240: ec5a 21bd e051 703c c4b9 2dbd a01c 9a3c
00000250: a45a 833c e250 78bd b0bb 5e3c 4c72 0e3d
00000260: 6a61 043d d864 28bc 6b15 89bd 2038 4ebc
00000270: 1c4e e83c 8c0e f4bc 54e4 fd3c f8b8 5e3d
00000280: 77a0 2ebd 0015 533a 144a 0a3d 20b3 d13b
00000290: 007d df3b d809 273c 5d75 83bd 3043 d23b
000002a0: 6896 673d d2ae 963d d090 443d 2843 333c
000002b0: d42f 1c3d 61b2 22bd 7192 8abd 73cb 8fbd
000002c0: 9ed1 a63d 0c4c 543d 952c 67bd 94d8 023d
000002d0: 548e 7c3d 7427 a73d 0a37 923d 9c8d 813d
000002e0: 7858 99bc 5abc eabc 684b 893d 6469 3b3d
000002f0: d641 49bd 1255 963d 0c96 213d 4050 363d
00000300: 019e 51bd 5ce6 bf3c 6c7b eabc 44a8 823d
00000310: 18b7 70bc 5433 023d 009d 6d3c d64a 0e3d
00000320: 444d e3bc da0f 233d 3498 69bd 8c11 973c
00000330: 0247 62bd a4f7 a4bd 2949 86bd 9603 843d
00000340: 3cf1 343d 14e3 9c3d 5af6 853d 6f55 95bd
00000350: f03a 64bd 2028 58bc b731 59bd 5c3b 683d
00000360: 44d6 7cbd 1c2c 23bd 618c a1bd 09e0 3dbd
00000370: 9088 893d 6ee9 883d 1467 6f3d 2e1d 813d
00000380: 3eb0 943d 1c46 abbc 2a27 133d e4fa 943d
00000390: ac46 dd3c 162a a73d c875 2d3d f8e6 4f3d
000003a0: c419 eabc da78 203d 50b7 193c 1cbd 9fbc
000003b0: 8386 3cbd 7da8 3bbd e3ab 80bd 8884 603d
000003c0: 00c3 6d3d b040 18bc b588 41bd 7e3e 813d
000003d0: 68de 553d 60e1 c63b 47e6 1dbd 8aae 993d
000003e0: d0c3 083d e6e2 7dbd be0a a03d 74f6 7d3d
000003f0: 68cc f3bc 5c01 3c3d 0006 3ebd f0a4 51bc
0.050931588 -0.063891634 -0.01726158 -0.033106703 -0.015726969 -0.016031317 -0.07326832 -0.07049941
-0.012776494 0.0010559112 -0.03709139 0.03075736 -0.073489465 -0.005510308 0.0718043 -0.033304244
0.0737299 0.02956973 -0.07368563 0.051659524 -0.009421922 -0.036448967 0.06529142 -0.0659807
0.008761413 -0.01709488 0.05830705 0.022792056 0.039233096 0.028835312 -0.019634679 -0.017171368
-0.06728597 0.044241384 0.06482804 0.055866733 -0.057593897 0.0036415681 -0.05755763 -0.044946846
-0.047577705 0.027903363 -0.04865611 -0.0017813668 0.0034348518 0.052633256 -0.061720617 -0.05605349
-0.047410816 0.05714932 -0.029350195 0.06887056 0.029525131 0.0103389695 -0.00060780346 -0.016140632
0.010244288 -0.018644266 -0.0005737096 0.010417931 -0.06386678 -0.04279515 0.065931514 -0.06626251
-0.0058629513 0.080771014 0.029494882 0.0023117512 -0.07075841 0.040447436 -0.05815748 -0.023177419
-0.027394794 -0.0120912865 0.00089310855 0.06734526 0.01019305 0.07313302 0.049946114 -0.051620055
0.036620207 -0.057717822 -0.03460518 0.024015017 0.026960075 0.061255872 -0.026284322 0.00013071299
0.04203517 -0.07896274 0.05903113 -0.067517936 0.0011253357 -0.01388181 -0.04300267 0.010791719
0.06751764 -0.02386779 -0.048474923 -0.030197214 -0.080926925 0.036856167 -0.03921337 -0.054488108
-0.047038484 0.04694496 0.04323951 0.06266791 0.029616222 -0.027267694 -0.022816848 0.024121754
0.06711885 0.022199906 -0.03863216 -0.03838166 -0.077197224 0.017640248 -0.04582036 -0.07279687
0.07159667 -0.053024203 -0.009288594 0.023392104 0.0026012212 -0.054940566 -0.065999195 0.06508151
0.013295725 0.06773856 -0.027372282 0.024050348 -0.018671334 -0.0036310554 -0.049728252 0.02761399
0.025814839 -0.0016843155 -0.018363185 -0.050331283 0.05646439 -0.060781978 0.033449046 -0.027454987
-0.03939335 0.014667958 -0.042413488 0.018812478 0.016034432 -0.06062401 0.013594553 0.03477697
0.032319464 -0.010277949 -0.06693538 -0.012586623 0.028357558 -0.029792093 0.030992664 0.05437562
-0.0426335 0.00080521405 0.033762053 0.006399527 0.006820321 0.010195218 -0.0641887 0.006416701
0.056539923 0.07357563 0.047989666 0.010941304 0.03813155 -0.039720897 -0.06766213 -0.07021227
0.0814545 0.051830336 -0.056439 0.031944826 0.061659172 0.08161822 0.07139404 0.06325838
-0.018718943 -0.028654266 0.06703836 0.045754805 -0.04913505 0.073404446 0.039449736 0.044510126
-0.051176075 0.023425274 -0.028623305 0.0637975 -0.01469209 0.03178723 0.014502764 0.034739338
-0.027746804 0.03981004 -0.057029918 0.018440984 -0.0552435 -0.08055046 -0.06556923 0.064459965
0.04417537 0.07660499 0.065411285 -0.07291686 -0.05572027 -0.01319316 -0.053025927 0.056697235
-0.061727777 -0.039836988 -0.07888103 -0.046356235 0.067155 0.06685148 0.058447912 0.06304394
0.07260178 -0.020907454 0.03592602 0.07274416 0.027011238 0.08162324 0.042348653 0.05075738
-0.02857674 0.039177753 0.009382084 -0.019499354 -0.046026718 -0.04581498 -0.06282785 0.05481389
0.058047295 -0.009292766 -0.047249515 0.063107476 0.052214056 0.0060693473 -0.038549688 0.07503994
0.033389866 -0.061983965 0.07814549 0.062002614 -0.029760554 0.045899734 -0.04639244 -0.012795672

conv2.bias f4 [16]
00000000: aabb a5bd 4862 49bc 8085 473a 10dc dcbc
00000010: 6eb8 5bbd c7b5 68bd f438 5e3d ac8b d8bc
00000020: f02d acbb ac44 c43c 2e46 4dbd d078 ee3b
00000030: 64ed 463d 978a 43bd b499 c23c e0c4 36bb
-0.08092435 -0.0122914985 0.00076111406 -0.026960403 -0.053642683 -0.05681398 0.054253533 -0.026433788
-0.0052544996 0.023958527 -0.050115757 0.0072775856 0.048566237 -0.04773959 0.023754932 -0.0027888343

fc1.weight f4 [120, 400]
00000000: 7a36 e13c e715 083d a456 593c a005 c63a
00000010: 524c 30bd 8215 a33c 1eb8 f93c f0c6 94bc
00000020: ca5a 4bbd 75f6 253d 0c4a 40bc 34e6 233c
00000030: b448 66bc 619b 023d b9bc 473d 6760 003d
00000040: 465a 82bc 9385 0f3d 5edb c73c 90d8 9f3b
00000050: 63f6 24bd 23e1 afbc 5ba0 4abd 25fa 083d
00000060: 6371 4a3d 0299 ee3c 0ae0 823c 609c 413c
00000070: 3726 453d 9aa8 cfbc 5c83 89bc b0e2 37bd
00000080: 803d a2bb 20c6 603b 743f 603c e379 0ebd
00000090: 3098 bdbb 62c1 28bd ab97 26bd 188e d53b
000000a0: 7fea 47bd 9422 5a3c 57a9 3cbd 5081 0ebd
000000b0: 14fb 29bc d36f 43bd 3167 253d dfcd 273d
000000c0: 2af2 d5bc 289b 2b3c 868a d13c ee28 823c
000000d0: 2879 dbbb 6f2b 41bd 05eb 143d 22a1 33bd
000000e0: 34b7 17bc d043 4b3b 04e6 86bc 2ad0 95bc
000000f0: aa00 31bd a08c 343b 4008 babb 8f8b 323d
00000100: 56d9 86bc 014b 1e3d b01f 1b3b a706 b8bc
00000110: 2cd2 42bc 70ed b9bb 80c4 073a 20f7 06bc
00000120: d41d 733c f7a7 283d c8c3 003c c25c 943c
00000130: b2ef fc3c 8094 303c 4ad0 bc3c 22db d63c
00000140: 0db2 3f3d 58e9 3abd 5e29 8c3c 007a 14bb
00000150: d41e 13bc 03eb 9dbc 7240 f63c 3559 3b3d
00000160: 9d22 27bd 764c dd3c 4338 0d3d c02c 0f3c
00000170: 8066 1a3a 5199 1d3d 004e c23a 1454 4cbc
00000180: 50f9 71bb fe69 833c ec13 4d3c 30cb 30bb
00000190: 0a4c 813c a4a0 5c3c 6be6 25bd 2820 4c3c
000001a0: 829c fa3c 10e5 bb3b 408c 95bb 1be2 1c3d
000001b0: 0fee 32bd d7f4 babc aa22 b9bc 39f5 303d
000001c0: 4716 46bd 287e a23b 3563 46bd c081 d7ba
000001d0: 5aac 983c d892 3fbc 7dce 463d 00e6 2639
000001e0: 90d3 d0bc 643e 533c aa04 d53c 0054 d0b8
000001f0: 7933 2f3d 089f 01bd 7ac4 ae3c e295 e83c
00000200: da71 cb3c 00d8 99b7 2cda 693c fdaa 20bd
00000210: cdb7 20bd b0ac 4bbb 8058 cdbb bb11 183d
00000220: f5b5 143d 39dd 0a3d 3d9c bbbc 8dc6 20bd
00000230: 281a 40bd 1a3d 943c aa8a 38bd 7f71 4cbd
00000240: f300 cfbc d7e9 2cbd 1a6b a1bc 5eee 00bd
00000250: 9723 d2bc 57b5 423d 2860 1abc b7e3 293d
00000260: 6068 913a 18b0 d2bb e0d8 6fbc 8865 12bd
00000270: d08b 24bd d9ce 0d3d c071 7cbc 03ad 47bd
00000280: 77f3 3b3d 0022 733a c20a 09bd d8fb 20bd
00000290: edfc 2bbd 7794 33bd f153 393d 5135 0d3d
000002a0: 4001 863b b88b 2ebd 6043 56bc 5763 40bd
000002b0: 0a28 8d3c 8083 59bc e84d 2fbc f899 7fbc
000002c0: a20a c03c 52b6 dd3c 2074 333c 282b cdbb
000002d0: d0e9 a1bb 0008 65ba d881 18bd 71d6 473d
000002e0: 40a7 b0bc de4e ee3c f39e e5bc 00fb af39
000002f0: a237 8c3c 1a0b 3cbd 2ae2 bb3c 5ac3 1cbd
00000300: f0a1 e43b 6072 22bc d2ca ea3c 9b0b 473d
00000310: a09e 383c c021 bbba 27ef cabc b2b6 983c
00000320: 5326 c5bc 3631 a93c 2d88 b1bc 31eb 0a3d
00000330: c716 1d3d 1a29 fb3c 804b 033a 0ef3 bd3c
00000340: d59e 3abd 5916 263d 94d6 54bc 8652 953c
00000350: e0b8 0abc d089 89bc b359 c0bc c719 043d
00000360: b3d7 debc 5476 10bc 6e9f ce3c 1021 a53b
00000370: 9051 2cbd e0a5 4bbd f022 c7bc f1e3 3c3d
00000380: 3b9e 11bd babe e13c 5b99 123d 33c7 a9bc
00000390: d3e1 b4bc 2e57 13bd 708f ff3b f00a e5bb
000003a0: e033 1f3b 1aab b13c 66f7 ab3c 443a 81bc
000003b0: e00d 613b 1899 423c 6080 8b3a 28ee 233c
000003c0: bdec a5bc 81de 273d 180d a8bb 28a0 d1bb
000003d0: 83cf 37bd f873 14bd 60dc cb3a 5862 fdbb
000003e0: 4af0 cdbc c667 d63c d0ad 92bb 2e0d 903c
000003f0: 037f 2c3d f74f bcbc 0098 c9bc ac9d 24bc
0.027491797 0.033224013 0.013265286 0.0015107878 -0.043041535 0.019907717 0.030483302 -0.018161267
-0.04964713 0.040518243 -0.011736404 0.010003615 -0.01405542 0.031886462 0.048763964 0.031341936
-0.015912186 0.035039496 0.024396595 0.004878111 -0.040274035 -0.021469658 -0.049469333 0.03344168
0.04942454 0.029125694 0.01597597 0.011817068 0.048132148 -0.02534895 -0.01678627 -0.04489392
-0.004951179 0.003429778 0.013687003 -0.03478421 -0.0057859644 -0.04120005 -0.040671986 0.006517183
-0.048807617 0.013313908 -0.046059933 -0.03479129 -0.010374803 -0.047714066 0.040381614 0.04096782
-0.02611645 0.010474004 0.025578748 0.015888657 -0.0066977926 -0.047160562 0.036356945 -0.04385484
-0.009259988 0.0031015761 -0.016467102 -0.018287737 -0.043213524 0.002754964 -0.005677253 0.043590125
-0.016461056 0.038645748 0.002367001 -0.02246411 -0.011890929 -0.0056740567 0.0005179122 -0.00823763
0.014838655 0.04117581 0.007859178 0.018110637 0.030876014 0.010777593 0.023048539 0.026227538
0.04680066 -0.04563269 0.01710957 -0.0022655725 -0.008979518 -0.019277101 0.030060027 0.04573937
-0.040804494 0.027013998 0.034477483 0.008738697 0.00058899075 0.038476292 0.0014824271 -0.012471218
-0.0036922283 0.016041752 0.012516957 -0.0026976578 0.015783329 0.013466034 -0.040502947 0.0124588385
0.030592207 0.0057340935 -0.0045638382 0.03830157 -0.04368406 -0.022821827 -0.022599537 0.043202613
-0.04836109 0.0049588867 -0.048434455 -0.0016441867 0.018636871 -0.011692725 0.048536766 0.00015916675
-0.025491506 0.012893293 0.0260032 -9.933859e-05 0.042773698 -0.031645805 0.021333922 0.028391782
0.024834562 -1.8339604e-05 0.014273208 -0.039225567 -0.039237786 -0.0031078272 -0.0062666535 0.037126284
0.03630634 0.03390238 -0.022901649 -0.039251853 -0.046899945 0.018095542 -0.045054115 -0.049912926
-0.025269007 -0.042215195 -0.01970439 -0.031477325 -0.025651736 0.04753622 -0.0094223395 0.04147693
0.0011093728 -0.0064296834 -0.014639109 -0.03574136 -0.040172398 0.034621093 -0.0154079795 -0.04874898
0.045886483 0.0009274781 -0.033457525 -0.039302677 -0.041989256 -0.04384276 0.04524607 0.034474675
0.0040895045 -0.042613715 -0.013077587 -0.046969738 0.017231006 -0.013275981 -0.010699727 -0.015600674
0.02344257 0.027064476 0.010952979 -0.006261248 -0.0049412027 -0.0008736849 -0.037233204 0.04878849
-0.021564126 0.029090341 -0.028029894 0.0003356561 0.017116372 -0.045909025 0.022934992 -0.03827224
0.0069773123 -0.009914964 0.028661165 0.048595052 0.011268288 -0.0014277026 -0.02477224 0.018641803
-0.024066126 0.020653348 -0.021671379 0.033915702 0.0383518 0.030659247 0.0005008504 0.023187187
-0.04556163 0.040548656 -0.012990613 0.018227827 -0.008466929 -0.016789347 -0.023480272 0.032251146
-0.027202463 -0.008817274 0.025222506 0.0050393417 -0.04206997 -0.049718738 -0.024308652 0.04611582
-0.03555129 0.027556766 0.035790782 -0.020724868 -0.022080338 -0.035971813 0.0077990815 -0.0069898292
0.0024292395 0.021688033 0.020991992 -0.015774854 0.0034340546 0.011877321 0.0010643117 0.010005511
-0.020254487 0.04098368 -0.005128514 -0.006397266 -0.044875633 -0.03624341 0.0015553348 -0.0077326708
-0.025138993 0.02617253 -0.0044762865 0.01758441 0.042113315 -0.022987349 -0.024608612 -0.0100473575

fc1.bias f4 [120]
00000000: a81f 14bc 65e4 233d e91b 0a3d 0061 473c
00000010: 96ed b53c 00bf 8bbc 8050 78bc 66c4 8bbc
00000020: 3226 ab3c 64db 7a3c 5bf7 35bd b04d cbbb
00000030: d5f8 0c3d 6539 313d 6abb 823c 0040 7b36
00000040: d304 dbbc 37b0 e3bc f05f 83bb b087 9cbb
00000050: 47e2 f8bc 2b0a 4c3d 0646 be3c 6ad8 e03c
00000060: caf2 16bd 94cc 203c c686 ed3c 6a31 b63c
00000070: 19e7 353d 58e9 05bc c394 0ebd cd04 bfbc
00000080: 556a 45bd 67f8 2b3d 50a7 88bc ea5c d63c
00000090: d2b9 c83c c0f5 b53b d03a 633b 7d30 1dbd
000000a0: 606b 333b 30f8 46bb 7058 f83b 5a23 903c
000000b0: a065 1e3c 0195 193d 5858 b2bb c907 293d
000000c0: 0e37 0cbd 0e7b 27bd 18b1 0f3c 658a 0a3d
000000d0: 5d1d 173d 11ff 043d d5f7 2c3d 54d5 253c
000000e0: 90aa ccbc f064 cbbc 0af6 893c 5cb4 5e3c
000000f0: 2a68 8a3c ecce 37bc a8cf 31bc 84f0 4f3c
00000100: 4c86 473c b438 0bbc a0d3 73bc fece c33c
00000110: 28f2 a8bb a432 723c 226e 28bd b154 0b3d
00000120: 2d23 e5bc 6256 0ebd 00bd c63b 703b a03b
00000130: a006 8e3a d253 3fbd 06ad 84bc df2d 2f3d
00000140: a66a c73c 120a 8d3c 7327 2e3d 684f c3bb
00000150: c8d8 3fbd ec1d 3ebc 1a34 ffbc 6091 aa3a
00000160: 4a58 e33c 2d5e 4b3d 8026 e73b 941e 7f3c
00000170: 7051 fe3b 41ed 1a3d 8052 293c 74e4 473c
00000180: 3365 fcbc c022 133a 8af7 3fbd 4270 a43c
00000190: d80b e13b ebe6 003d b398 a8bc 7f20 093d
000001a0: a8fb c93b 5a7e 993c b022 983b 4e15 9d3c
000001b0: 45a6 1d3d a17c 3d3d 6644 00bd af0e 44bd
000001c0: 1d4a f5bc f434 7e3c 47ec 39bd a0b2 893a
000001d0: 090c 113d 4231 9b3c 58b2 c93b 37c9 483d
-0.009040751 0.040012736 0.033718023 0.012169123 0.022208016 -0.01705885 -0.015155911 -0.017061424
0.020892236 0.015311096 -0.04442535 -0.0062043294 0.034416992 0.043267626 0.015958507 3.7439167e-06
-0.026735699 -0.027793987 -0.0040092394 -0.0047769174 -0.030381335 0.049814384 0.02322675 0.027446944
-0.036852635 0.0098144 0.028994929 0.02224036 0.044409845 -0.008173309 -0.03480984 -0.023317719
-0.04819711 0.04198494 -0.016681343 0.026167352 0.024502669 0.0055529773 0.0034672506 -0.03837632
0.0027377233 -0.0030360334 0.007578902 0.017594982 0.009667784 0.037495617 -0.0054426603 0.04126719
-0.03423219 -0.04088884 0.00877025 0.03382339 0.036893237 0.032469813 0.04222854 0.010121662
-0.024983674 -0.024828404 0.016840953 0.013592806 0.016895372 -0.011218768 -0.010852732 0.012691621
0.012178015 -0.008497406 -0.014881998 0.023902413 -0.0051558204 0.0147825815 -0.041120656 0.034016315
-0.027970875 -0.03475035 0.006065011 0.004889898 0.0010835715 -0.046710797 -0.016195785 0.042768355
0.024342846 0.017216716 0.04251809 -0.0059603937 -0.046837598 -0.011603814 -0.031152774 0.0013013296
0.02775206 0.04965036 0.00705415 0.015571255 0.007761173 0.03782392 0.010334611 0.012200464
-0.030809974 0.0005612783 -0.04686693 0.02007306 0.006867867 0.03147022 -0.020580625 0.033478256
0.006164033 0.018737007 0.004642807 0.019175198 0.038488645 0.046261434 -0.03131523 -0.047865566
-0.029942567 0.015515555 -0.045391347 0.0010505505 0.03541187 0.018944386 0.0061552934 0.04902002

fc2.weight f4 [84, 120]
00000000: 2cea 3ebd f6d1 b53d b9da 6cbd 0565 9bbd
00000010: b4f1 803d b810 86bd 03ba b3bd de14 9c3d
00000020: ec7f 8ebc c00e ff3b 4a21 943d 6235 6dbd
00000030: 000f 153c 6026 023c b54c 00bd 306b 1c3d
00000040: e8fd 6a3d 9c7f a73d f40f 57bd 60e8 38bb
00000050: bf03 78bd 0826 193d acd4 b6bc 8405 4b3d
00000060: 2002 92bd 1031 a03d feae 24bd f440 a83d
00000070: 8424 723d 2894 c73c 0c80 a23c ea24 a53d
00000080: ed4a 4dbd 383a 1a3d 1c93 03bd 3cbe a43d
00000090: 5e58 3fbd df79 97bd 18a5 c13c 6cfa 65bd
000000a0: ba35 083d d032 e1bc 20b0 c43b 549c 4b3d
000000b0: d4d7 46bd 598f 4abd a083 08bb 40e3 c23a
000000c0: 7c31 2d3d b8b7 d63c e2c1 9fbd eeb0 a63d
000000d0: 5205 aabd b311 b4bd 0485 b23d 37de b9bd
000000e0: 0059 f13c dc57 9c3c 101e 513d 4686 a73d
000000f0: 7433 e63c 689a 053d 90bf 8a3d dc89 ebbc
00000100: 8cfc 673d b342 3fbd b3cd abbd 80ed 9ebd
00000110: d32d 21bd e0ac 7a3c 3463 9a3d 489d 9bbd
00000120: a4c2 b4bc 05b5 02bd 2e6c 963d b0b5 433d
00000130: 60f0 d2bc 9878 57bc f281 61bd fa45 75bd
00000140: d0a6 b4bc c070 a7ba 58b8 313d 6021 3e3d
00000150: e024 e3bb 72d6 5ebd 04b7 9dbd 2886 a73d
00000160: a0d5 2f3b 0450 fb3c 9fb9 9bbd 5071 203d
00000170: c829 003c d8b7 ef3c 5eaf 87bd 84f1 d83c
00000180: 20b0 9d3d b90a 25bd 3c02 8dbd e800 b33c
00000190: b4ab c13c 7e76 adbd 865c b13d 401b b63d
000001a0: 323a a43d b439 913d bcfc 963c 4ac3 1cbd
000001b0: 884f 3c3d d69b 8f3d 8879 b0bc 6849 c43c
000001c0: 730c 5abd 9a95 47bd f6b5 acbd f467 e5bc
000001d0: 04be cebc 80de 06bd f09d bc3b 2185 87bd
000001e0: 807f b6bd 1827 373c 409b a6ba 4c69 9d3d
000001f0: 5434 f6bc c4e0 4c3d 8a3f 9a3d d49c e5bc
00000200: baed a93d 38ec 613d 7f56 adbd 989c ccbc
00000210: e47f 6d3d 7462 7f3d e421 ce3c f0a1 98bc
00000220: 9427 a43d bc41 87bc c20a 2cbd 4034 513b
00000230: cc3f 0e3d f498 2e3d 8ac6 22bd d842 1ebc
00000240: 805e 10bb f03a 193c ffa7 4abd 9594 34bd
00000250: 92bb 943d 603a 0fbd 0a8f af3d dc55 9d3d
00000260: 0470 d63c 7e46 80bd 742d 2e3d 747c b63d
00000270: c0e0 983d 503f 4ebd bc10 983d 1ec1 1ebd
00000280: c8bd 173d f0ec 773d 84ce 8abd fe85 a33d
00000290: 92f1 8d3d 44a5 613d fe9f 8dbd 3c1c a33d
000002a0: e2d6 b9bd 006e 3bbd ad8b 2bbd 84d1 6c3d
000002b0: 419a 57bd fabf 1bbd e86f 62bd 2035 4dbb
000002c0: 30a9 353d 01cb babd a0ec 123d 3b24 03bd
000002d0: 36fd a73d fb3c 74bd 62de 21bd d01f 3ebc
000002e0: f848 d43c 98e2 8b3d c292 063d 351d 32bd
000002f0: c10d 12bd 10b0 0bbd 0e09 b53d 3078 09bd
00000300: b04d 023c 78eb 7d3d 0910 9cbd 4a07 a03d
00000310: 80df d8bb 54e5 04bd f478 143d 18af 4abc
00000320: e05c 7fbc 0a5a 52bd 40c2 9b3c 203b 973b
00000330: d0de 35bd 2f29 5fbd 1083 4ebc 24ec b73c
00000340: 10d2 ae3c d8d0 673d bcc3 bfbc 6c61 d73c
00000350: fb8a 9cbd 00d1 a73b 70b4 033c a0da 3abc
00000360: 908a a8bb 001d 69ba 72b5 9e3d ebbf a5bd
00000370: d419 a7bd 6481 8c3c c8c9 86bd 0132 62bd
00000380: ead1 b13d cf5a 1bbd 3ce7 963c 0096 5b3d
00000390: 204e 8b3d f8e1 87bd e077 9b3b f47e 363d
000003a0: 7e12 b6bd 1469 6c3d 5323 5dbd c4d6 5ebd
000003b0: 66e3 a53d 1f5a 93bd be25 ae3d 388c 73bc
000003c0: 2e28 eebc 744b af3d d833 c53c ca97 87bd
000003d0: 7753 67bd 0894 7cbc 7070 7f3d 488c 24bd
000003e0: ec8d 343d d86e 743d 98c8 3f3d e834 f5bc
000003f0: 493f 62bd a006 1d3b dd29 95bd 384f 2abd
-0.046610042 0.088779375 -0.057825778 -0.07587627 0.06296101 -0.065461576 -0.08775713 0.076211676
-0.017394982 0.0077837408 0.07232912 -0.057912238 0.009097815 0.00794372 -0.031323154 0.03818816
0.05737105 0.081786364 -0.05250545 -0.0028214678 -0.060550448 0.037389785 -0.022318207 0.049565807
-0.071293116 0.07821858 -0.040205948 0.08215514 0.059116855 0.024362639 0.019836448 0.080636814
-0.050120283 0.037653178 -0.032122716 0.08044097 -0.046715133 -0.07396292 0.023638293 -0.056147024
0.033254363 -0.02749005 0.006002441 0.049709633 -0.048545673 -0.049453113 -0.0020830408 0.0014868751
0.04228352 0.02621065 -0.07800652 0.081392154 -0.08301796 -0.08792438 0.08716777 -0.09075587
0.029461384 0.019084863 0.05105406 0.081799075 0.028100707 0.032617956 0.06774819 -0.02875226
0.05663733 -0.04669447 -0.083888434 -0.07760143 -0.039350342 0.015300006 0.07538453 -0.075983584
-0.022065468 -0.031910915 0.073448524 0.047780693 -0.025749385 -0.01315131 -0.055055566 -0.059881188
-0.022052199 -0.0012774691 0.043388695 0.046418548 -0.006931886 -0.05440373 -0.07700923 0.08179885
0.0026830211 0.030677803 -0.07603764 0.039170563 0.007822461 0.029262468 -0.066252455 0.026482351
0.07699609 -0.04029343 -0.06885192 0.021851018 0.023641445 -0.08469866 0.086602256 0.08891916
0.080189124 0.07091084 0.01843106 -0.03827218 0.045974284 0.07012145 -0.021542326 0.023960784
-0.05323453 -0.048726656 -0.08433144 -0.02800367 -0.02523709 -0.032927036 0.0057561323 -0.06617189
-0.089110374 0.011178754 -0.0012711063 0.076860994 -0.030054249 0.05001904 0.0753165 -0.028028883
0.08297296 0.055156916 -0.084637634 -0.024977013 0.057983294 0.06234975 0.025162645 -0.018631905
0.080153614 -0.016510837 -0.042002447 0.0031922013 0.03472881 0.042626336 -0.039740123 -0.0096594915
-0.0022028983 0.009352431 -0.04947662 -0.04408701 0.07262339 -0.03496778 0.085722044 0.07682392
0.02617646 -0.06263445 0.042523816 0.08910456 0.07464743 -0.05035335 0.07425067 -0.03875839
0.037046224 0.060528696 -0.06777671 0.07984541 0.069308415 0.05508925 -0.06915282 0.0796437
-0.09074189 -0.0457592 -0.041881252 0.057816997 -0.052637342 -0.03802488 -0.055282503 -0.0031312183
0.044350803 -0.09120751 0.035870194 -0.032016974 0.08202593 -0.059628468 -0.03951872 -0.011604264
0.0259137 0.06830329 0.032854803 -0.043484885 -0.035657648 -0.034103453 0.08839618 -0.033561885
0.007953092 0.06199214 -0.07620246 0.0781389 -0.00661844 -0.032445267 0.036248162 -0.012370847
-0.015586108 -0.0513554 0.019013524 0.0046152025 -0.044401944 -0.054482635 -0.01260449 0.022451468
0.0213404 0.056595653 -0.023408763 0.026291572 -0.07643696 0.0051213503 0.008038625 -0.011404663
-0.005143471 -0.0008892566 0.07749452 -0.08093246 -0.08159223 0.017151542 -0.065814555 -0.05522347
0.08682616 -0.0379284 0.018420808 0.053609848 0.068020105 -0.06634897 0.004744515 0.044554666
-0.08890246 0.057717398 -0.053988766 -0.054404035 0.081000134 -0.071949236 0.085032925 -0.014864974
-0.029071894 0.085593134 0.024072573 -0.06620748 -0.056476083 -0.015416153 0.062363088 -0.040172845
0.04408066 0.05967602 0.04682216 -0.029932454 -0.055236135 0.0023960248 -0.072833754 -0.041579455

fc2.bias f4 [84]
00000000: 3563 91bd 98cb 5cbc a031 8b3d 288e 0d3d
00000010: f26a 78bd ac84 10bd d432 2abd 946d fd3c
00000020: 382a d73c bc9b dd3c f679 7fbd 4c7d 873d
00000030: 84ab 143d 1659 2dbd 105f 383d d9d1 86bd
00000040: 88c3 f6bc 8795 84bd 6c85 d43c 5fd7 b6bd
00000050: c4e3 5b3d 825d 9a3d b0b4 b33b 4450 973d
00000060: 0e9f 9b3d 90a2 05bc 6a63 51bd 10b8 5a3d
00000070: 9885 663d 40b9 a53b 74eb 073d 91c9 78bd
00000080: e275 21bd 64bd eb3c cce3 a0bc 5ccf 2d3d
00000090: 7023 7f3d d867 a73d 8aed 90bd 59fd 8ebd
000000a0: b4cf f23c 1050 b23c b13a b0bd c0ad 663b
000000b0: 1b3f 97bd a870 30bc 40d5 a53b 70cd f1bb
000000c0: 9600 883d 0450 9dbd 00f3 cf3a c0c8 b5bd
000000d0: 6271 82bd 3e8d 06bd 10cb a7bd d07b 973c
000000e0: 18f5 ab3d 6e02 8f3d f805 a03c 5446 b8bd
000000f0: 1866 5c3d 8c73 9fbc 2232 ffbc 9812 4f3c
00000100: a493 13bd 5e1f 963d fc68 8ebc 4cda 8a3d
00000110: f8af 2fbc 80b6 8e3a 28a4 9b3d 5039 c23b
00000120: ed2e 4ebd 0273 aabd d075 f5bc 5f9e 61bd
00000130: c2c6 033d efb2 1fbd 7873 78bd 0a7d 3bbd
00000140: 7009 11bc b012 2cbd 7e10 ab3d b81c 73bd
-0.07099 -0.013476275 0.067965746 0.0345594 -0.060648866 -0.035282776 -0.04155238 0.03093604
0.026265249 0.027051799 -0.06237217 0.06615695 0.036296383 -0.042321287 0.045012534 -0.06582994
-0.030122533 -0.064738326 0.025942527 -0.089277975 0.05368401 0.075373664 0.005484186 0.07388356
0.07598697 -0.008156434 -0.0511202 0.053398192 0.05627975 0.005057484 0.03318353 -0.060739104
-0.039419062 0.028776832 -0.019639872 0.04243408 0.062289655 0.081741035 -0.07076557 -0.06981916
0.029640056 0.021766692 -0.086049445 0.0035198778 -0.07385083 -0.010769047 0.005060822 -0.0073792264
0.06640737 -0.076812774 0.0015865266 -0.08876181 -0.06369282 -0.032849543 -0.08193028 0.018491656
0.08396357 0.06982885 0.019534096 -0.08997789 0.0538083 -0.019464277 -0.031151835 0.01263871
-0.036029473 0.073302016 -0.017384045 0.06779918 -0.010723107 0.001088813 0.0759967 0.0059272423
-0.05033772 -0.08322717 -0.029963404 -0.055082675 0.032171972 -0.038989004 -0.060656995 -0.045773543
-0.008852348 -0.04201001 0.08352755 -0.05935356

fc3.weight f4 [10, 84]
00000000: 38be 55bd 7cb1 853c b222 303d 90af bfbc
00000010: 087b 9ebd 6099 d9bd ef54 9e3d cc3b 02bd
00000020: e02d 83bc 8b78 d63d 6c72 c4bd fd9e c23d
00000030: 44f5 a83c 50d2 fbbc cec7 80bd 89e8 ce3d
00000040: 3472 d1bc 6afa 7ebd 6884 3bbc 861a 5d3d
00000050: 40f7 d9bc 90aa c5bb e712 863d caf9 08bd
00000060: 5358 ad3d a588 b63d d409 11bd 2355 ba3d
00000070: e0f7 8c3b 328a d3bd bf87 8a3d 7356 8c3d
00000080: 0da6 b33d b80c f2bc 4093 3c3c b38f 3fbd
00000090: 451a 963d 729e 0fbd ddb5 6ebd cfb8 bcbd
000000a0: 8004 f93a 7910 b03d 8af6 343d 3a69 06bd
000000b0: 8229 0fbd ce41 2bbd 1ca8 b23c 48cf 89bc
000000c0: d8b5 62bd 55c6 debd 0a52 b4bd 1007 c0bb
000000d0: 2583 b33d 3616 08bd 3afa 36bd dc57 aa3c
000000e0: 48ad 5abc d013 df3b e29c 6b3d 8679 3a3d
000000f0: 0ec5 013d eee8 693d ba35 20bd aec8 113d
00000100: dedf 373d a0b6 d8bd 878e 893d 4c52 d93c
00000110: 26e2 473d dc48 f73c 22ab 5b3d 46c8 a4bd
00000120: 0029 ed39 3e84 bfbd 134d 73bd 02b1 173d
00000130: ae1c 85bd 9417 883c 78a1 a0bc b4fe 37bd
00000140: 8c5b 31bd 2088 953b 1a03 b3bd ba43 1d3d
00000150: dc71 fdbc 5b6e 8c3d da6e 00bd e190 bdbd
00000160: 7abc 93bd c717 d93d 95b0 ba3d ac26 bd3c
00000170: 5a94 a8bd 6d9c 9c3d bcbc b23c b06a c8bc
00000180: 48d0 09bd f964 c73d f2b6 6f3d 0650 9bbd
00000190: 2547 6ebd a08f cb3b fc41 cdbd 2669 593d
000001a0: 1a9e 443d c520 cf3d 9ee5 0e3d e9da 93bd
000001b0: 88df 28bd 1ec4 16bd f934 d13d f690 10bd
000001c0: 4eeb 563d e86b 9bbd 8858 bbbd dc2b a93c
000001d0: 9bce c93d 1dd6 c43d 624c 563d 7b31 8a3d
000001e0: a4a4 ff3c 1107 c93d b45f a33c 49af cebd
000001f0: ccaa 9bbd 7905 c03d 5e4c 4f3d 831d af3d
00000200: dbef d5bd 66d3 3b3d 7357 a93d 4612 92bd
00000210: d02c eabb 3d42 aa3d cb6c a53d dff6 acbd
00000220: 236d c2bd 0469 74bd 019e d43d b3d6 ab3d
00000230: 80d1 063b 6fee bc3d 3556 d8bd 7c51 973c
00000240: af1b 88bd fc09 94bd feec 39bd 7424 b53c
00000250: c8ba 643c 5f7a 8c3d c419 d83c 3ae3 98bd
00000260: fc9d 933c e65b 3cbd e6cf 633d 6702 82bd
00000270: 5bc0 c5bd c051 09bb 0ae4 193d aafa 08bd
00000280: e011 fbbc fade 243d 1712 d53d 8a5f bdbd
00000290: f811 33bc 7854 2dbc 4e99 1abd dc07 a93c
000002a0: 2c7b d53c 2ce0 c63c 3c94 843c 9073 86bd
000002b0: 7df2 833d b6c1 073d 2029 773b da08 543d
000002c0: 2e1d 6c3d c882 b3bd 29ff bc3d 6aed 1c3d
000002d0: 78f4 52bc 4030 c7ba 0298 1fbd bdd6 a6bd
000002e0: 2156 a63d b5c5 55bd 2e80 373d e0e1 58bd
000002f0: 732d b43d a083 9a3b e812 bfbd fe19 40bd
00000300: a833 b9bc 6fd4 44bd 9f66 a13d b107 4dbd
00000310: ae14 413d 1e70 083d 3622 233d 3ccd ad3c
00000320: f28c 65bd 911b 4cbd c42e bebc 3f5f b2bd
00000330: 9848 8dbd 8409 49bd db58 9d3d 36fe 393d
00000340: b417 21bd 8492 8d3c f14b c63d 60ee 7cbc
00000350: 9ac7 44bd bfb0 cb3d b664 2d3d 48eb aebd
00000360: 712c 893d 914b 953d 0a68 683d 54f3 9b3c
00000370: 002e a139 4ea3 713d 6480 d6bd b208 423d
00000380: 928d 0d3d 085e dcbd ad60 8d3d 5457 d8bd
00000390: 9ce1 b73c eafd c0bd 641d d8bc c806 50bd
000003a0: 6f3f 853d aac7 573d fa3a 243d 4cd4 f63c
000003b0: ac65 bcbc 2c67 fb3c 1b10 45bd a5c7 883d
000003c0: 00aa 9039 d7e7 aa3d 84bb ea3c e714 ac3d
000003d0: 422d 83bd 900c 81bb 7aac aebd 1eea c3bd
000003e0: dd6d d63d 4c96 74bd ce8f 9abd adff db3d
000003f0: 374f d63d 1f08 d73d 14e9 b9bc 9ff0 833d
-0.05218336 0.016319983 0.043001838 -0.023399144 -0.0773831 -0.10624957 0.077310435 -0.031795308
-0.016013086 0.104722105 -0.09592137 0.09502981 0.020624764 -0.030739933 -0.0628811 0.10102946
-0.025567152 -0.062250532 -0.011445142 0.053980373 -0.026607156 -0.0060322955 0.06546574 -0.033441342
0.08464112 0.089127816 -0.035409763 0.0909827 0.00430201 -0.10329093 0.06764173 0.068524264
0.08771906 -0.02954708 0.0115097165 -0.0467679 0.07329229 -0.035063215 -0.058278907 -0.09214937
0.0018998533 0.08596892 0.04418043 -0.032815196 -0.034951694 -0.041810803 0.021808676 -0.016822472
-0.0553492 -0.108776726 -0.0880471 -0.005860217 0.08765248 -0.033224307 -0.04467223 0.020793848
-0.0133469775 0.0068077818 0.057522662 0.04552605 0.031682067 0.057106905 -0.039113738 0.035591774
0.04489123 -0.10581708 0.06716638 0.0265285 0.048799656 0.03018611 0.05363 -0.080460116
0.0004523471 -0.09351395 -0.059399676 0.037034042 -0.06499611 0.016612805 -0.019608244 -0.04492064
-0.043300197 0.0045633465 -0.08740826 0.038394667 -0.030938081 0.06856986 -0.031355716 -0.09256149
-0.072136834 0.10600238 0.091157116 0.02308973 -0.08231421 0.07647023 0.021818511 -0.024464935
-0.033645898 0.09736056 0.05852408 -0.07583623 -0.058173317 0.00621219 -0.10022351 0.053078793
0.04800234 0.10113672 0.03488695 -0.07219488 -0.0412288 -0.036808126 0.10215182 -0.035294496
0.052470498 -0.07588941 -0.09147745 0.020650797 0.0985386 0.09611151 0.052318938 0.06747719
0.031206436 0.09815801 0.019943096 -0.10092027 -0.07600936 0.09376044 0.05060994 0.08550551
-0.104461394 0.045855902 0.08268633 -0.07132392 -0.0071464553 0.08313415 0.08077391 -0.084455244
-0.094934724 -0.059670463 0.10381699 0.0839056 0.002057165 0.09225165 -0.10563318 0.018471472
-0.06645905 -0.07228467 -0.04539203 0.022112109 0.013960548 0.06859278 0.026379474 -0.07465215
0.018019669 -0.04598608 0.05561819 -0.063481145 -0.096558295 -0.0020953268 0.03757099 -0.033442177
-0.030648172 0.04025171 0.10403841 -0.09246738 -0.010929577 -0.010579221 -0.03774386 0.02063363
0.02605971 0.024276815 0.016183965 -0.065650105 0.06442735 0.03314372 0.0037713721 0.051766254
0.057645015 -0.08765179 0.092283554 0.038312353 -0.012875669 -0.0015196875 -0.038963325 -0.08146427
0.081218965 -0.0521905 0.044799976 -0.052949786 0.08797731 0.004715398 -0.09329778 -0.046899788
-0.02260764 -0.048054155 0.078809015 -0.050056163 0.047138862 0.03331005 0.039827548 0.021216027
-0.05604262 -0.049830977 -0.023215659 -0.08709573 -0.06898612 -0.04908134 0.076829635 0.04540845
-0.039329246 0.017281778 0.096824534 -0.015437692 -0.048041917 0.09945821 0.042332374 -0.0854097
0.0669793 0.07289804 0.056739844 0.019036926 0.00030742586 0.05899363 -0.10473707 0.047371574
0.03455884 -0.107601225 0.06903205 -0.105635315 0.022446446 -0.0942343 -0.026381202 -0.050787717
0.065062396 0.05268065 0.040095307 0.030130528 -0.0229977 0.030688845 -0.048111062 0.06678704
0.0002759248 0.08345001 0.028653868 0.08402424 -0.064051166 -0.003938265 -0.08528991 -0.09566139
0.104701735 -0.059713647 -0.0754696 0.10742126 0.10464328 0.10499596 -0.022694148 0.06442379

fc3.bias f4 [10]
00000000: 34d2 13bd 5458 88bd 363d 593d 11ae 8c3d
00000010: 0ac0 20bd 6add 2e3d 5f7c 5ebd 1626 743d
00000020: 0058 1fb9 c70b c03d
-0.036089137 -0.06657472 0.05303689 0.06869138 -0.039245643 0.042691626 -0.05431783 0.059606634
-0.00015196204 0.09377246
