my_image_classifier.onnx (onnx, 258050 bytes, 10 tensors)

conv1.weight f4 [6, 1, 5, 5]
00000000: 5d33 b0bd 3358 c8bd 345c 31bd 8807 0cbd
00000010: 594d 1c3e 3262 21be 0026 f03b 631d b4bd
00000020: 62f3 d13d e29a 1abe f170 133e 939c 3d3e
00000030: c7ac bdbd 1786 f0bd f544 353e 5892 2cbd
00000040: da99 92bd acca 78bd 1818 91bc 9c6f 02be
00000050: c013 c03c 38bd 1abe fd20 b2bd 9e61 bf3d
00000060: b397 9fbd 3b49 373e d5b2 43be ce48 d33d
00000070: 6346 1cbe 50d2 81bc 1a63 97bd 31aa 0c3e
00000080: 525c 01be 748a 51bd 941b 6ebd 974a c2bd
00000090: a3c8 163e 202a 75bd e8a6 71bd a763 d5bd
000000a0: 0fce 39be 76b0 b23d c3bc bcbd daad d03d
000000b0: d746 2a3e 60e0 abbb 2173 0f3e 6004 5cbc
000000c0: ea40 f4bd 20b6 10bc 4914 353e 685b eebc
000000d0: d21d b23d b3df a3bd 7bd7 063e 22d4 9d3d
000000e0: b097 a43c 6b2b 41be 10aa ecbc 7ac3 aa3d
000000f0: 86d9 dd3d ac00 1bbd 0cb8 203d b3b2 fabd
00000100: c96f 403e fd1e 133e ac8e 243d cd43 2abe
00000110: ca33 ad3d 8d51 293e 122f 08be 69c9 3b3e
00000120: 20fd e3bd e977 1c3e a937 0c3e 7e3f ff3d
00000130: 7eff b33d 50f0 36bc f7aa febd a246 a83d
00000140: b4b3 71bd 802b 133b 342a 2c3d 89a1 453e
00000150: ed90 d0bd 6c38 363d 8cb4 743d c461 573d
00000160: 7bb6 38be 556c 263e 9ecd db3d 5087 8abc
00000170: 8065 ea3c c152 1f3e 3200 823d f7e4 2ebe
00000180: 0735 333e cd4b 31be ddda b8bd 0004 e63b
00000190: c8b8 7cbd f85e 07bd 9a84 8fbd de55 f83d
000001a0: d64b a23d fd2e 2f3e 9706 363e 0cf1 583d
000001b0: 7a90 d0bd 98f8 ebbc 30f5 f6bc 3031 dabd
000001c0: 5a13 28be c668 833d 9d28 ffbd 73a2 143e
000001d0: 6ac0 12be b3dc 183e 696d 083e 9ee7 f83d
000001e0: f2e4 31be cc6b 70bd 44e6 523d da5e 833d
000001f0: 84ff 793d 8a13 4cbe a043 64bc 5b8a 0b3e
00000200: d86a d33c 0003 09ba 6c9c 32bd 2cdf 4f3d
00000210: 1bf8 38be b857 0cbe 2a59 8ebd 3094 973c
00000220: 00d3 1cba ff46 31be 922a b43d 4887 0abd
00000230: ccea 72bd 34e4 46bd 0721 4abe 2408 733d
00000240: 88c6 4dbd ca54 f13d 6ccd 603d 9641 d93d
00000250: c07d bc3c aad5 b0bd
-0.08603547 -0.09782448 -0.043300822 -0.03418687 0.15263881 -0.15760115 0.0073287487 -0.087946676
0.102515 -0.15098146 0.14398552 0.1851676 -0.0926147 -0.117443256 0.17702086 -0.04213175
-0.07158251 -0.060740158 -0.017711684 -0.12737888 0.023446918 -0.15111244 -0.08697698 0.09344791
-0.07792606 0.17899029 -0.19111188 0.10316621 -0.15261225 -0.015847355 -0.07391949 0.13736798
-0.12632874 -0.05115743 -0.05813177 -0.09486883 0.14724974 -0.059854627 -0.058997065 -0.10419398
-0.18145011 0.087250635 -0.09215691 0.101894096 0.16628586 -0.0052452534 0.14008762 -0.013428777
-0.11926444 -0.0088324845 0.1768352 -0.02909632 0.08697094 -0.080016516 0.13168137 0.07706477
0.020091861 -0.18864219 -0.028889686 0.083380654 0.10832505 -0.037842438 0.03923802 -0.122411154
0.18792643 0.1436729 0.040175125 -0.16627426 0.084571436 0.16535015 -0.13299206 0.1833855
-0.11132264 0.15280117 0.13693108 0.12463282 0.08788966 -0.011165693 -0.12434953 0.08216597
-0.05900927 0.0022456348 0.042032436 0.19299902 -0.101838924 0.0444874 0.059742495 0.05258347
-0.18038361 0.16252263 0.10732578 -0.016910225 0.028612852 0.15558912 0.063476935 -0.1707953
0.17500697 -0.17314072 -0.0902612 0.00701952 -0.06169966 -0.033049554 -0.070077136 0.12125753
0.07924621 0.17107768 0.17775951 0.052964255 -0.10183807 -0.028805062 -0.030146211 -0.10653913
-0.16413632 0.06416468 -0.12458918 0.14515094 -0.14331213 0.1492794 0.13322987 0.121535525
-0.17372492 -0.058696553 0.05148913 0.06414576 0.061034694 -0.19929329 -0.013932139 0.13626997
0.025807783 -0.0005226582 -0.043606207 0.050749943 -0.18063395 -0.13705337 -0.069506004 0.018503278
-0.0005982369 -0.17312239 0.08797182 -0.03382042 -0.05930595 -0.048557475 -0.19739161 0.059333935
-0.050238162 0.1178375 0.054883406 0.10608213 0.023009181 -0.08634503

conv1.bias f4 [6]
00000000: 8e29 f53d 0315 073e 7267 e63d f346 343e
00000010: 7210 13be aa89 d3bd
0.119708166 0.13191609 0.112501994 0.1760519 -0.14361742 -0.10328992

conv2.weight f4 [16, 6, 5, 5]
00000000: f008 37bc 3c12 77bd 6c48 6e3d 78cf 8b3d
00000010: 6412 3ebd 0ee7 983d 085c 393d 9e9e efbc
00000020: 682a e53c 1c2b 28bd 9513 88bd 0abc 23bd
00000030: 560e f7bc d24c c3bc 00cd f23b e27c 0dbd
00000040: 5e8f 59bd c0b1 e83c 64c8 873d 0086 87bb
00000050: 0ce4 9b3c 16fc 9d3d d886 bc3c 60c6 cf3b
00000060: d469 51bd 00e5 e03c 6ad6 82bd 107a 03bd
00000070: 963c 893d 00ed 83b9 bc80 ca3c 962c 9c3d
00000080: 4e71 08bd 105e 9e3d 86df d3bc ca0b 873d
00000090: d200 b4bc 0efa 013d a080 913d e932 0fbd
000000a0: 90bd 60bc d29b 173d 585c 2fbc 92b9 9cbd
000000b0: d88d 7a3d 101e 86bd 9434 5a3d f8ff 7cbd
000000c0: ec0d c4bc 04f6 ef3c ec75 39bd 8497 cabc
000000d0: a28d 8c3d 48c8 013c 000f 463b 2004 453d
000000e0: e076 0b3d 38e3 66bc 10f9 773d 346f 6e3d
000000f0: 8c1e 0d3d 50f6 cbbb a274 77bd bcdb 233d
00000100: 9ca3 98bd d073 173d 8a53 f4bc ae5c 91bd
00000110: ca5a 873d 6eb7 993d 806f bf3b 9c7b 5bbd
00000120: dc37 a93c 74e4 81bd 50fa a63c 4b4e 3fbd
00000130: 1c14 17bd b444 513d 401d fdba e098 01bc
00000140: 36ee a0bc e8f8 3ebc 987f 7fbc 8a4f 123d
00000150: 8eda 9ebd f2bd 4ebd 91ad a1bd 80b6 c43a
00000160: ad1c 5cbd a02c 5d3d a7a2 a6bd d8bd 593c
00000170: a92e 38bd e0d6 d23c 50c8 36bc 0068 3d39
00000180: b8d6 983c 2065 8c3b 34e4 953c 482c 7a3d
00000190: 3430 313d b47d 84bd 6e92 863d 40a8 9e3a
000001a0: d5cf 82bd 00d0 c0b9 6841 223d 002e 803b
000001b0: 20e6 9c3d 96cd f4bc 20af 5abb 0045 073d
000001c0: 0056 4cbc 6c94 543d c07c 573d 00b1 a53b
000001d0: 042f 93bd f0e7 c63c da00 aebc 7977 8bbd
000001e0: b2e1 0cbd 802a 92ba d43a 223d c09f 7b3d
000001f0: 613f 34bd 5c78 643d 1044 863c 042d c4bc
00000200: d628 78bd e0d5 203d 8477 273d 1062 e9bb
00000210: dc47 8dbd c408 1f3d f08f 3c3c b8e0 c2bc
00000220: 9487 93bc 1c0c 573d 70dc a63d 6093 9f3d
00000230: c86c ee3c 604d 943b 6036 563d 8235 2a3d
00000240: 16fc a4bc 44e3 d03c 202b 3e3d ce2b 163d
00000250: 18bb 77bc da4a 863d 880f 183c 10c7 71bc
00000260: e953 14bd cd72 70bd f465 3d3d e6ff 943d
00000270: b44f 893c 2672 9d3d 459d 1cbd 9067 493c
00000280: 00e0 8b3d 30b8 79bc c02a 7e3b 3604 0c3d
00000290: 804a 99bc c654 9c3d 24ba 113d 2c4f c23c
000002a0: 701e 67bd 4825 8a3d 4463 80bd 0005 453d
000002b0: a841 603d 4049 baba 464d 0e3d c822 463d
000002c0: 6876 26bd 0049 f1b9 a0eb 94bd 202c 10bb
000002d0: 289a cc3c 050b 60bd 8035 323d f816 19bd
000002e0: 8ee6 283d ce47 2a3d 50e3 31bc 2a2d 063d
000002f0: ede5 6bbd 085b 6abc 4c2d 283d f0d5 fa3b
00000300: 1c26 74bd 08c6 843d b4a0 583d 37cd a1bd
00000310: bcc7 6c3d d455 9c3d 1844 62bd ccb8 1e3d
00000320: c015 af3b a6cf 13bd 4240 9e3d f9a2 16bd
00000330: bd83 90bd 9038 443d f6bc 203d 808b 33ba
00000340: 963e 8dbd 183d b23c 28f7 7e3d f3d7 85bd
00000350: d851 3c3c 4051 5b3d 4891 e13c ce24 3ebd
00000360: 7082 923b 8413 a03c 7cec 6b3d 804b 0bbd
00000370: a48a 673d 0473 93bd 7033 ea3b ec3a 413d
00000380: cc95 753d 181b 223d 58e7 653d 9d9c 43bd
00000390: 847d 693d 9c52 4b3d 62ac d4bc 7ecc 94bd
000003a0: 1001 83bd 800f 853d b477 a53d 10ce 32bc
000003b0: c4e1 623d a0c4 4c3c 59a6 98bd 2064 9c3b
000003c0: 2203 943d 6221 8cbd bed4 2e3d 18e8 90bd
000003d0: 161a 8fbd 50ff 903d a0c2 9cbb 787b 82bd
000003e0: 8c28 823c e86f 073d 46b6 8abd fc1c 95bd
000003f0: 4f66 67bd ecea bb3c ee05 203d ec5d 6dbd
-0.011171564 -0.060320124 0.058174536 0.06826681 -0.046404257 0.07465945 0.045253783 -0.02925044
0.027974322 -0.041056737 -0.0664436 -0.03997425 -0.030158203 -0.023840342 0.007409692 -0.034542926
-0.05311524 0.02840507 0.06630018 -0.004135847 0.01902964 0.07714097 0.023013517 0.006340787
-0.051126316 0.027452946 -0.063885525 -0.03209883 0.06701009 -0.00025162846 0.024719588 0.076256916
-0.03331118 0.07732785 -0.02586342 0.065940455 -0.021973047 0.03173261 0.071046114 -0.03496066
-0.01371707 0.037013836 -0.010703169 -0.07652582 0.06117043 -0.06548703 0.0532728 -0.06176755
-0.02393242 0.029292114 -0.045278475 -0.024730451 0.06862952 0.007921286 0.0030221343 0.048099637
0.034048915 -0.014092259 0.06054026 0.05821152 0.03445296 -0.006224431 -0.060413964 0.040004477
-0.07453081 0.03697568 -0.02982499 -0.07097755 0.066091135 0.075056896 0.0058421493 -0.05358468
0.020656519 -0.06342402 0.02038303 -0.046705525 -0.036884412 0.05109091 -0.0019311085 -0.007909983
-0.019644838 -0.011656024 -0.015594386 0.035720386 -0.0775653 -0.050474115 -0.07894433 0.0015008003
-0.053738285 0.053997636 -0.08136492 0.013289891 -0.044966374 0.025737226 -0.011156157 0.00018063188
0.018657073 0.004284516 0.018297292 0.061077386 0.04325886 -0.064692885 0.06570898 0.0012104586
-0.06387297 -0.00036776066 0.039613158 0.0039117336 0.0766108 -0.029883187 -0.0033368543 0.033024788
-0.012471676 0.05189936 0.052609205 0.0050565004 -0.07186702 0.024280518 -0.02124064 -0.06809897
-0.034394927 -0.0011151582 0.039606884 0.061431646 -0.044005755 0.055778846 0.016389877 -0.023947246
-0.06058582 0.039266467 0.040885463 -0.0071222857 -0.06898472 0.03882672 0.011508927 -0.023788795
-0.018008985 0.052501783 0.08147514 0.077917814 0.029104605 0.0045258254 0.05229795 0.041554935
-0.020139735 0.025498994 0.046427846 0.03666287 -0.01512029 0.065572456 0.009281047 -0.014756933
-0.036212835 -0.058703233 0.04623981 0.07275371 0.016761638 0.07687788 -0.03823592 0.012292758
0.06829834 -0.015241668 0.0038782805 0.034183703 -0.018712282 0.07633357 0.03557791 0.023719393
-0.05642551 0.06745392 -0.062689334 0.04810047 0.054750115 -0.0014212504 0.034741662 0.048373014
-0.040640265 -0.0004602149 -0.072715044 -0.0021998957 0.024975851 -0.05469801 0.043508053 -0.03737542
0.0412355 0.041572385 -0.010857418 0.032757916 -0.05759232 -0.01430393 0.041058823 0.007654898
-0.059606656 0.06483084 0.052887633 -0.0790047 0.05780767 0.07633558 -0.05524072 0.038750455
0.005343169 -0.0360867 0.077271 -0.036776517 -0.07056377 0.047905505 0.039242707 -0.0006849095
-0.06896703 0.021757647 0.062247425 -0.0653533 0.011494122 0.053544283 0.027535096 -0.04642182
0.004471116 0.019540556 0.057598576 -0.03400755 0.056528702 -0.07199672 0.007147245 0.047175333
0.05995731 0.03957662 0.05612883 -0.04775678 0.057004467 0.04963933 -0.025961105 -0.07265566
-0.06396687 0.06497097 0.08079472 -0.010913387 0.055391088 0.012498051 -0.07453603 0.004772678
0.0722716 -0.06842305 0.042683356 -0.07075518 -0.069873974 0.07079947 -0.0047839433 -0.06371206
0.015888475 0.033065706 -0.06773047 -0.07280919 -0.056494053 0.022939168 0.039068155 -0.0579509

conv2.bias f4 [16]
00000000: f454 813c 7c8a 95bc de5e d5bc 1977 0ebd
00000010: 50e6 92bb f073 6e3d c814 00bc 9e82 0d3d
00000020: a0cf a03b 4850 53bd f722 9cbd cc60 903c
00000030: 0d7e 75bd b8e3 8d3d 4043 01bc 4099 663b
0.01578758 -0.018254511 -0.026046213 -0.03478155 -0.004483022 0.058216035 -0.007817455 0.034548394
0.0049075633 -0.051590234 -0.076238565 0.017624281 -0.059934665 0.069281995 -0.007889569 0.003518656

fc1.weight f4 [120, 400]
00000000: cf5c 2e3d 0c9f 173c f032 3bbd aa0a 803c
00000010: 64db 8ebc c126 453d ad5d aabc 2a8d 02bd
00000020: 5f60 1d3d b608 ad3c 8c6c 143c a9b2 473d
00000030: b04f 26bb 7355 d7bc 9e74 ea3c 9853 403c
00000040: 0040 ac3b 94b9 00bd 80d1 b6b9 9a85 f0bc
00000050: 9d34 0a3d b845 67bc 2d57 0d3d c30e 253d
00000060: fa45 9abc 0030 ff39 50ee dabb b866 37bc
00000070: 514f 473d 1ec7 24bd ce3a c73c b3ab 1b3d
00000080: 8683 9c3c 427b 953c 00f1 84bc a106 1b3d
00000090: 2819 b3bb f369 083d 130c f4bc c0ca aebb
000000a0: 7596 48bd 1f08 083d a07c 34bb bd97 263d
000000b0: ba83 bebc 1e74 e73c 1c2a 743c 7029 bbbc
000000c0: 4261 bd3c 4016 9b3a 405f 193c 9de4 cdbc
000000d0: 8366 9abc f01f 28bd c262 cd3c ce2b c73c
000000e0: d06f cebb 1328 12bd bf39 193d 83d2 123d
000000f0: aa1e 10bd ba4d 0abd 2758 cbbc 1097 873b
00000100: 77c6 e3bc 30d1 cdbb d07e 2b3b 8aae b93c
00000110: b8e7 70bc 22c8 17bd e3b9 2f3d 148d 33bc
00000120: 420e b63c 03f1 eebc 4a65 d0bc 6ad9 f0bc
00000130: 00ce f53b e149 1e3d 853a 21bd c759 c8bc
00000140: 71cf 453d edb4 463d 9dc9 1e3d 1005 afbc
00000150: 1a6f 893c 5001 cebc d329 2e3d 7214 823c
00000160: 9a83 f5bc 548d 54bc 60da aaba 8714 203d
00000170: d6d0 873c 8e76 db3c 0d76 203d 6254 dd3c
00000180: 7b4a 4bbd b17a 263d fad0 a03c a75a 44bd
00000190: 8603 19bd 9801 f03b 00ce 753a 0620 1dbd
000001a0: 2811 df3b 041c 07bd 409d 3b3c 8086 59ba
000001b0: fd7a 1ebd d851 27bd 9872 4c3c 32d7 1ebd
000001c0: 7079 14bd 6de3 053d 745a 2e3c 50b6 b6bb
000001d0: 0aee 87bc c264 3abd 638e d4bc cda7 c0bc
000001e0: 7b52 1f3d 7aac b43c 505b 41bb e19a 4c3d
000001f0: afba 253d 0c9f 53bc aa06 833c e04b 07bb
00000200: 0aab e7bc 6c7f 2dbc b0cb c63b 0080 7e38
00000210: d3be 46bd 821c cf3c c4b8 613c d5d7 373d
00000220: 0a8e b7bc cd26 0b3d b0aa 3bbd 90d2 f4bb
00000230: 607e 863a 4c86 0ebc 21ea 0d3d 1d5a d2bc
00000240: 0289 e93c c8c7 233c e0f5 aabc b0b8 2b3b
00000250: 9f25 063d 3e0d 9f3c 00fb e3b9 19a2 4a3d
00000260: 00f2 a7ba c9c0 133d da9b 80bc eae0 44bd
00000270: c947 023d 3025 13bd 7494 783c 8ccb 113c
00000280: 4c43 03bc 0379 aabc bcd7 01bd 18d1 a6bb
00000290: 404d 21ba 4094 86ba 503b f9bc 3a52 b0bc
000002a0: 6291 c43c b1f6 3e3d 4a2f 94bc b75b 3abd
000002b0: 741f 233c 986d f63b d14d 413d 8942 003d
000002c0: d2f5 ce3c f289 fe3c a032 91bc 3029 06bb
000002d0: 05c3 2d3d 92d9 47bd 5df4 2cbd 560e fc3c
000002e0: 8f52 383d 0624 0bbd 62c9 ab3c 731f aabc
000002f0: d61a bc3c a89b b63b 89df 013d 2723 363d
00000300: 8b85 4cbd 1e9f da3c 405a 313c 7e83 b23c
00000310: 40fa 09bd 70a6 b13b e274 23bd d829 f73b
00000320: 5040 1b3b 7a5c c23c 2351 1dbd fde2 ffbc
00000330: 6a0b b73c 50da b23b 3225 833c e089 44bb
00000340: addd efbc 1a76 2ebd 0dc7 11bd 47e7 333d
00000350: d2ae d03c d33c f1bc 4cbf 1bbc 00ca 1039
00000360: 8059 d939 4c46 28bc 050e 013d e8b4 493c
00000370: a3e5 43bd 62ba 8b3c 9a6c 8ebc c512 15bd
00000380: b8a6 12bd e0df 1dbc 006d a4bc 7429 5f3c
00000390: b75d c4bc a17b 063d a0ca f33a ac7c 13bc
000003a0: 4d8c 13bd ed9b 423d 68da 64bc 5eb3 d43c
000003b0: 5a3b 22bd b482 383c a206 ab3c 365b 8cbc
000003c0: d823 b13b 54c1 233c 0337 483d 8054 35bd
000003d0: 7a8a e83c 1fa6 013d da8d 8d3c 9c9f 7d3c
000003e0: 4c4e 69bc 802d d83b 8426 703c c25c 41bd
000003f0: d67a d13c 1cd0 86bc 6074 cc3a 3282 e63c
0.042568978 0.009254228 -0.045702875 0.015630085 -0.017438598 0.04813266 -0.020796621 -0.031872906
0.038421985 0.021122318 0.009059083 0.048754368 -0.0025377087 -0.026285863 0.02862006 0.01173868
0.005256653 -0.03142698 -0.00034869835 -0.029360581 0.033741582 -0.014115743 0.034506965 0.04029728
-0.018832196 0.00048673153 -0.006681241 -0.011193924 0.048659626 -0.040228955 0.024320032 0.038005542
0.019105684 0.01824725 -0.016228199 0.03784812 -0.0054656453 0.033304166 -0.029790914 -0.0053342283
-0.048971612 0.03321087 -0.0027540103 0.040672053 -0.023256171 0.028253611 0.014902618 -0.022846907
0.023117665 0.0011832193 0.009361088 -0.025133425 -0.01884771 -0.041046083 0.025071505 0.02431288
-0.00629995 -0.03568275 0.037408587 0.03584529 -0.035185494 -0.033765532 -0.024822308 0.004137881
-0.027804596 -0.0062810406 0.0026168115 0.022666235 -0.014703684 -0.037056096 0.042901885 -0.010958929
0.022223596 -0.029167658 -0.025438923 -0.029400546 0.0075013638 0.038644675 -0.03936245 -0.024456872
0.048293535 0.048512388 0.038766492 -0.021364719 0.01677661 -0.02514711 0.042520355 0.01587889
-0.02996998 -0.012973148 -0.0013035052 0.039082076 0.016579073 0.02678993 0.039175082 0.027017776
-0.049631577 0.04064435 0.019630898 -0.047938015 -0.037356876 0.0073244087 0.00093767047 -0.038360618
0.006807465 -0.032985702 0.011451066 -0.0008297935 -0.03869151 -0.040849537 0.012478493 -0.038779445
-0.036248624 0.032687593 0.010641683 -0.0055759326 -0.016592998 -0.045506246 -0.025946802 -0.023517514
0.03889702 0.0220549 -0.002950389 0.04995239 0.04046124 -0.012916338 0.015994389 -0.002064459
-0.0282798 -0.010589462 0.006066762 6.067753e-05 -0.048521828 0.025282148 0.013776962 0.044883568
-0.022406597 0.03397255 -0.045817077 -0.00747139 0.0010261051 -0.008699011 0.03464711 -0.025677735
0.028507713 0.009996362 -0.020869195 0.0026202612 0.032750722 0.019415494 -0.00043483824 0.049470995
-0.001281321 0.036072526 -0.015699316 -0.048066057 0.03180674 -0.035924137 0.015172113 0.008898627
-0.00801165 -0.020809656 -0.03169988 -0.005090844 -0.0006153174 -0.0010267571 -0.03042379 -0.021523584
0.023995105 0.046621982 -0.018088955 -0.045497622 0.0099562295 0.007520389 0.047193352 0.031313453
0.0252637 0.031071637 -0.017724335 -0.0020471327 0.042422313 -0.048791476 -0.04222523 0.030768555
0.04500061 -0.0339699 0.02097005 -0.02076695 0.022962015 0.005572755 0.03170732 0.044467118
-0.049932044 0.026687201 0.01082474 0.021791216 -0.033685923 0.005421452 -0.03990639 0.00754283
0.0023689456 0.023725737 -0.038407456 -0.031236166 0.02234431 0.005458154 0.016008947 -0.0029989406
-0.029280508 -0.0425931 -0.03559022 0.043921735 0.025473986 -0.029447949 -0.009506058 0.00013808161
0.00041456148 -0.010270666 0.03150751 0.012311198 -0.04782642 0.017056648 -0.01738577 -0.036394853
-0.035803527 -0.0096358955 -0.020071507 0.013620723 -0.023970468 0.032832745 0.0018599816 -0.009001892
-0.036022473 0.047511984 -0.013968088 0.025964435 -0.039607383 0.011261631 0.020877186 -0.017133337
0.0054058842 0.0099948235 0.04888059 -0.04427004 0.028386343 0.031652566 0.017279554 0.015479948
-0.014239859 0.006597221 0.01465762 -0.0472076 0.025571268 -0.016456656 0.0015598647 0.028138254

fc1.bias f4 [120]
00000000: 3227 c43c ba62 2ebd 4c30 2cbc c5a6 26bd
00000010: 1257 3dbd 47a0 1d3d 9d65 c0bc 7ae9 d5bc
00000020: 30a0 08bb 0003 d83a d6b7 f83c 1896 2abd
00000030: 1836 ea3b 8f93 183d 26f9 0dbd 806c 093c
00000040: 13d5 3a3d 5862 1dbc a54d 143d 2b87 1e3d
00000050: 80d4 e4bc c973 0a3d 6800 203c 41dc 213d
00000060: cafa 07bd c7c3 31bd 308b 07bb f7a8 f0bc
00000070: 73e3 1d3d 00f3 04bd 0ca9 0abd c92c 053d
00000080: 0065 963b 3575 2d3d 3a55 fdbc ac79 34bc
00000090: a259 dd3c 4537 08bd 7089 80bc 0294 873c
000000a0: 1203 833c 2e87 ae3c f03e eebc 9aee babc
000000b0: f091 8cbc 68af a1bb e845 8d3b 975a eebc
000000c0: 5835 e3bb 05ab 333d 8372 d3bc 226b 07bd
000000d0: 4040 d53b 7a56 a6bc 20a2 3abd 0d1e 373d
000000e0: 40e2 33bc 4059 75bc f9bf 3e3d 100d 00bd
000000f0: 4d4c 4b3d 633f ccbc 7428 693c a918 103d
00000100: 8078 973b 96ef b63c e8da 0e3c 97a8 473d
00000110: e67a d93c 00f5 f5ba dc87 8cbc 7038 4abd
00000120: 7c3e 0bbd fc48 633c 03ad 163d 0be4 1bbd
00000130: e251 b83c d22d b23c 50a4 83bb 80b0 abbc
00000140: b0fc 69bb deb0 cb3c 0061 8cbb d2f8 893c
00000150: e759 dfbc 42bf e13c 586d 38bd 105a eb3b
00000160: 40b2 a23a 62be ea3c 76ab 903c fbc2 46bd
00000170: 42a3 40bd e1bf 2b3d c090 b73b a0fb 343c
00000180: 9821 fabb 7dac 053d 401b 98ba 18d2 11bd
00000190: ae9e 8b3c a814 9abb cc4d 7c3c ecc4 31bc
000001a0: a973 233d 10c5 31bd 36f2 02bd 17b0 1e3d
000001b0: 8edf b13c 60ad dcba c3c1 3b3d 5ea1 813c
000001c0: d828 6dbc e77f 453d 605d e8ba e976 353d
000001d0: 429d be3c f24f 9c3c 3d7a fcbc 42c2 21bd
0.023944471 -0.04257462 -0.010509562 -0.040686388 -0.046225615 0.03848293 -0.023485953 -0.026112307
-0.0020847432 0.0016480386 0.030361097 -0.041647047 0.0071475618 0.037250098 -0.034661435 0.008387685
0.04561336 -0.0096059665 0.03620686 0.038703125 -0.02793336 0.033801828 0.009765722 0.03951669
-0.033198155 -0.0433996 -0.0020682327 -0.029377444 0.03854699 -0.032458305 -0.033852622 0.032513414
0.004589677 0.042348105 -0.030924428 -0.011015337 0.02702028 -0.033255834 -0.015690535 0.016550068
0.015992675 0.021304693 -0.029082745 -0.022818852 -0.017159432 -0.00493424 0.004311312 -0.029095931
-0.0069338493 0.04386427 -0.02581144 -0.033061154 0.0065079033 -0.020304907 -0.04556477 0.044706393
-0.010979235 -0.014974892 0.0465698 -0.031262457 0.049633313 -0.024932569 0.014230836 0.035179768
0.004622519 0.02233104 0.0087191835 0.048744764 0.02654786 -0.0018765032 -0.017154627 -0.04937023
-0.033995137 0.013872381 0.03678609 -0.038059276 0.022499982 0.021750364 -0.0040173903 -0.020958185
-0.0035703592 0.02486461 -0.0042840242 0.01684228 -0.027264548 0.02755702 -0.045026153 0.007182367
0.0012412742 0.028655235 0.017659884 -0.04852579 -0.047030695 0.041931037 0.0056019723 0.01104632
-0.007633399 0.0326352 -0.0011604801 -0.03560075 0.017043438 -0.0047021694 0.015399408 -0.0108501725
0.039905224 -0.043400824 -0.03196927 0.03874215 0.021713044 -0.0016836338 0.045839082 0.015824016
-0.01447507 0.04821768 -0.0017728023 0.044302855 0.023268346 0.01908109 -0.030820007 -0.0394919

fc2.weight f4 [84, 120]
00000000: 24c4 133d 4eb2 983d 581b 903d 188b 363d
00000010: 503f 013c a418 c4bc 21f1 81bd b8c9 643c
00000020: db78 69bd d4b3 9f3d a08d ac3b 07ab 93bd
00000030: 8266 63bd c8da 233d c8da 4b3c 3774 40bd
00000040: 982b af3d 4614 823d 784a 3f3d 6328 8ebd
00000050: 409a 4cbc 7fb6 70bd d045 7b3c 6c6d 2b3d
00000060: 4472 693d 5e66 8f3d 9ad7 993d d9c6 b3bd
00000070: b82f 843d cbb1 11bd 7deb 83bd e5c1 a9bd
00000080: 2c6f 533d d206 8f3d f04d d5bb bb5e 44bd
00000090: e04f a83d 341e e0bc 061f 6bbd a4e1 54bd
000000a0: 1b76 46bd 9065 933d 1879 dabc b0ef 863b
000000b0: 3402 ac3d a451 1b3d 2686 a5bd 380a 943d
000000c0: 4058 51bb 6c29 a23c 0db0 6abd 8cf6 0d3d
000000d0: 0c4b dfbc 3898 6dbc 884a 3abd 984e 3ebc
000000e0: 424e 803d 105a 97bb c0e4 d23a f08d ea3b
000000f0: 7020 f93b 8c08 a3bc dd1f 89bd 4887 613d
00000100: 504b ac3d 6cba c5bc e8f0 28bc 90d6 ca3c
00000110: 0002 19b9 b098 833d c011 cf3a 311a 82bd
00000120: cc77 f03c e0ca 4c3b cc0b 6d3d 06f3 9c3d
00000130: 9701 b3bd dcac c53c 56c7 87bd 0221 fabc
00000140: 58f8 d73c 3476 98bc 2215 ac3d 5b74 82bd
00000150: c03f e5bb 3599 aebd 4063 df3a b04b 203c
00000160: 75a0 a1bd 2f4e a4bd 0031 803d bcd6 7c3d
00000170: 2cdd 75bd 5c58 82bd 3044 c83b d862 78bd
00000180: 2683 083d bf90 3ebd e196 19bd 180e 6f3d
00000190: 6521 83bd 1031 5a3d 4f27 53bd 6eb9 96bd
000001a0: 0811 70bc 1a59 96bd 605a 7c3d 4065 863a
000001b0: dc4a 7b3d b05c c53b 7c1b a6bc 0905 15bd
000001c0: ccad ad3d f2ff a13d 5a10 833d a82f 913d
000001d0: d430 323d 78f1 43bd ec91 7dbd 7de6 a4bd
000001e0: a80a 73bd f020 733d 0e7d ac3d 208d 03bc
000001f0: 8a49 b83d 505a 52bd 316e 5abd 4c69 9ebd
00000200: e3e2 3cbd 0039 983d 6e07 ae3d 68e3 aa3c
00000210: 00b7 843d 78aa 473d 1d30 adbd 94b4 a43d
00000220: 444c a63c 44a6 5e3d 645e 613d 44e7 bd3c
00000230: a481 b23c 30b3 3d3d 8336 91bd ea97 933d
00000240: 0011 473d 4a52 a2bd 7828 1d3c 9886 023d
00000250: fca5 b03c 703c 7abc d4b2 323d 565b 77bd
00000260: 0034 913a 7889 903c a4ad 92bd 084a a9bd
00000270: 1c10 90bd e03f 643d 10b5 6dbc 8028 26bd
00000280: a0e4 363d 1c19 9e3c 6c90 8ebc 7556 b5bd
00000290: 12d3 84bd 2618 b63d 20b6 aabb b0d5 87bd
000002a0: 550d b0bd 80e0 623a 78e9 533d bc52 943c
000002b0: f4b8 943d ddfe 66bd 5031 bf3c a4af ddbc
000002c0: 5455 643d 40b9 0d3d 2d5a 67bd e0e4 fa3b
000002d0: 8073 71bc 004d 403d 1053 183c cf01 94bd
000002e0: 20ee c0bb aec8 83bd 2069 053d 9c17 5c3d
000002f0: 6e35 4ebd 38a9 623d c82b 9bbc 182a 933d
00000300: db0e 06bd 05ba 9ebd fe16 943d 6100 9cbd
00000310: 7c00 763d 845d abbc 003c afbc f88b 0abc
00000320: 6098 333c 5ace 56bd 3c85 93bc 002a 463d
00000330: 1f94 7dbd 64d2 663d 3088 513d 40a9 5b3d
00000340: d01a 653c dca2 9b3d 801c 81bb 42a0 63bd
00000350: 4609 9d3d 36d2 993d 1877 a13c 92ec ebbc
00000360: d06e 0cbc 6480 7e3d 506c 02bc d42e adbc
00000370: c888 123d d07f 533d 23a1 58bd 3449 5c3d
00000380: 186e 6f3d e921 95bd 1871 343d 40a1 efba
00000390: 68ed 003d d6a9 8dbd ca40 a53d ac6b 523d
000003a0: 30f4 a63d c6a2 b03d e025 a63b dc79 b8bd
000003b0: 2ad8 9a3d 5c1c 083d 7cb9 95bc 78f7 debc
000003c0: 002e 7b3c 00d2 763d 1eb6 aa3d 36da af3d
000003d0: 8e93 81bd 182c 9c3c 4c2f 9e3d 2fd6 83bd
000003e0: ceaa a23d 2566 52bd 80b9 4f3b 0092 e1bc
000003f0: be25 a93d 10c2 db3b b5c9 80bd 28c1 193d
0.036075726 0.07455884 0.070364654 0.044566244 0.00788863 -0.02393753 -0.0634482 0.013964109
-0.057000022 0.07797971 0.0052659065 -0.07210355 -0.05551768 0.040003568 0.012442298 -0.04698583
0.08553237 0.06351523 0.04670188 -0.06941297 -0.012487948 -0.05876779 0.015336469 0.0418524
0.056993738 0.07001947 0.07511826 -0.087781616 0.06454414 -0.035569947 -0.064414 -0.082889356
0.051619694 0.06983723 -0.006509535 -0.047941905 0.0821836 -0.027358152 -0.057402633 -0.051973
-0.048452478 0.07197106 -0.02666907 0.0041179284 0.08398858 0.037919655 -0.080822274 0.072285116
-0.003194347 0.019795142 -0.0572968 0.034658954 -0.027257465 -0.014501624 -0.045481235 -0.011615418
0.062649265 -0.0046188906 0.0016089901 0.0071580335 0.007602744 -0.019901536 -0.066955306 0.055060655
0.08412802 -0.024136744 -0.010311343 0.024760514 -0.00014591962 0.06425607 0.0015798137 -0.06352652
0.029353999 0.0031248853 0.05787258 0.076635405 -0.087405376 0.024130277 -0.06629817 -0.030533317
0.026363537 -0.018611051 0.08402468 -0.06369849 -0.006996125 -0.08525316 0.0017043129 0.00978367
-0.07891933 -0.08022725 0.06259346 0.061728224 -0.06002538 -0.063645095 0.006111644 -0.06064114
0.033328198 -0.04652476 -0.037497405 0.05836305 -0.06402854 0.053269446 -0.05155116 -0.07359587
-0.014652498 -0.073412135 0.061609626 0.0010253564 0.06135069 0.006023012 -0.020276777 -0.036381755
0.08480415 0.07910146 0.06399603 0.07089168 0.043503597 -0.047837704 -0.06190674 -0.08051775
-0.059336334 0.059357584 0.0842229 -0.008029252 0.089984015 -0.05135566 -0.053327743 -0.077349275
-0.046114814 0.07432747 0.08497511 0.020860389 0.06480217 0.048746556 -0.084564425 0.08042255
0.020300038 0.054357782 0.05502166 0.023181565 0.021790333 0.046313465 -0.070904754 0.0720671
0.048600197 -0.07925852 0.009592168 0.03186664 0.021563523 -0.0152731985 0.043627575 -0.06038984
0.0011078119 0.017643675 -0.071620256 -0.082660735 -0.070343226 0.05572498 -0.014508501 -0.040565968
0.044651628 0.019299082 -0.01740285 -0.08854381 -0.06485571 0.08891325 -0.0052096993 -0.066325545
-0.08596293 0.0008654669 0.051736325 0.018105857 0.072618395 -0.0563954 0.023338944 -0.027061291
0.055745438 0.034600496 -0.056482483 0.0076566786 -0.01473701 0.046948433 0.009297147 -0.072269075
-0.0058877617 -0.06434761 0.03257096 0.053733453 -0.050343923 0.05533716 -0.018941775 0.07185763
-0.03272901 -0.07750324 0.07230948 -0.0761726 0.060059056 -0.020918615 -0.021390915 -0.008456223
0.010961622 -0.052442886 -0.018007867 0.048379898 -0.061908837 0.056352988 0.05115527 0.053628206
0.013983443 0.07599422 -0.003940165 -0.055572756 0.076677844 0.07510798 0.019710109 -0.028799329
-0.008571342 0.06213416 -0.007960394 -0.021140493 0.035774976 0.051635563 -0.052888047 0.05378075
0.058454603 -0.072818585 0.044053167 -0.0018282309 0.03147641 -0.06917159 0.08068998 0.051372215
0.08152044 0.086247966 0.005070433 -0.09007618 0.07560761 0.03323017 -0.018276922 -0.027217612
0.0153307915 0.060258865 0.08335517 0.08586542 -0.06326972 0.019063994 0.07723865 -0.06437337
0.07942735 -0.051366944 0.003169626 -0.027535439 0.08259152 0.0067064837 -0.062884726 0.037537724

fc2.bias f4 [84]
00000000: 54e8 113d 8a78 053d 79ce 2abd 4c8f 4cbd
00000010: 898b 66bd 716c 8ebd 63c1 6ebd e648 fdbc
00000020: f019 e7bc aaeb 79bd 8cbe 7e3d cc68 7b3d
00000030: 540e dd3c a4f3 a03c fdbf 50bd e8d5 84bd
00000040: 1829 823c f0e8 adbc f8e3 1bbc 309c 973b
00000050: 48ea a13d 00cf 383c c577 88bd a09a 6ebc
00000060: 824e 49bd 23a2 b9bd 5445 5f3d e6fc 033d
00000070: 3c1d a73c 3900 a6bd 0136 21bd 4c21 573d
00000080: f811 713d 06a0 873d 6051 b8bd bc12 b6bc
00000090: 20f5 2fbc b802 893c 8085 0e3a 7a47 94bd
000000a0: 9c8b f73c f0be 65bc 28b1 693d 9e16 993d
000000b0: 103c 37bc 7f0c 57bd 9cca ae3d c8fd 4c3d
000000c0: a412 b1bd 6881 2e3c b812 343d 1de7 76bd
000000d0: f8fd 75bd a027 3b3d b0a8 843d 10d2 c4bb
000000e0: f893 cf3c 284a ed3c 4818 753d e060 8a3b
000000f0: b02f 22bd 3092 9fbd 4b2d 18bd f44f 6b3d
00000100: 990b a5bd ef1a 95bd 5c65 703d aebf 6cbd
00000110: 0c8a 7c3d 54ad 56bd b8a2 e73c 9b76 8fbd
00000120: 4270 5abd b00f 083d a845 a33d 14c4 ae3d
00000130: f42d e8bc 34e0 3d3d d4dc bdbc 0eff 82bd
00000140: 3b34 31bd de52 b8bd 0cb9 7e3d 0d2b 4cbd
0.035621956 0.032585658 -0.041700814 -0.049941346 -0.056285415 -0.06954277 -0.058289897 -0.03091855
-0.02821061 -0.061015762 0.06219344 0.06137924 0.026984371 0.019647427 -0.050964344 -0.06486112
0.015888736 -0.021229237 -0.009514801 0.0046267733 0.07906014 0.011279821 -0.06663469 -0.014563233
-0.049147137 -0.09064128 0.054509476 0.032223605 0.020399682 -0.08105511 -0.039358143 0.05252199
0.058855027 0.06622319 -0.08999896 -0.02222573 -0.010739595 0.01672493 0.0005436763 -0.072401956
0.030217938 -0.014022574 0.057053715 0.07475017 -0.011183754 -0.05250215 0.085347384 0.050046712
-0.086461335 0.01065097 0.043963164 -0.060279 -0.060056657 0.045692086 0.06477487 -0.0060064867
0.025339112 0.028966025 0.05983761 0.004222974 -0.03959626 -0.07791555 -0.03715257 0.057449296
-0.08058853 -0.07280528 0.058690414 -0.057799987 0.06165509 -0.052411392 0.028275833 -0.07005044
-0.053329714 0.033218086 0.0797227 0.08533493 -0.028342225 0.046356395 -0.023176588 -0.06396304
-0.0432627 -0.09000181 0.062188193 -0.049845744

fc3.weight f4 [10, 84]
00000000: 6a3f 783d d76c 873d 48cd 49bc 197d 9f3d
00000010: 4d16 a43d f2a1 a1bd c73c a0bd 786c 13bd
00000020: f535 c63d 69c6 853d 4670 8ebd 0a36 043d
00000030: 8169 8b3d b0d2 79bc d5e9 a6bd dce4 883c
00000040: d05d c0bd f9ec 9c3d c788 ab3d 481f 71bc
00000050: 7f28 a7bd 8000 bfba 9034 24bc 51c4 9c3d
00000060: 29d3 46bd 6a68 71bd c07e e7ba c0e7 cdbb
00000070: 002b 063c 5448 fd3c f4e0 c3bd 43cf 823d
00000080: c40a 933c 262e 97bd f4ab c2bd b8a6 2abc
00000090: a081 94bb edd5 b1bd 687d 393c 0856 a6bd
000000a0: baf1 6a3d 8527 813d 6985 ae3d 5c93 b4bd
000000b0: 933c babd c9f4 d8bd a02f 1ebc 0042 513a
000000c0: d85d 413c a5c8 d3bd cfbd de3d 30ff 813c
000000d0: b666 cfbd a8e3 a4bc 7773 96bd 0406 bbbd
000000e0: da50 363d 6cd7 fabc be81 083d 6382 c63d
000000f0: a4f9 d53c 0663 0e3d 0da8 ae3d 48c6 7a3c
00000100: e865 d9bc 3c08 eb3c 0074 ce3a 6e68 95bd
00000110: 5dbf a03d c306 c63d f0b0 c7bb 32c7 113d
00000120: 5c26 98bd 4a90 7a3d 4416 ca3c 1bf9 88bd
00000130: a017 523c d8ee 36bd 16eb 5b3d 8f98 de3d
00000140: 3505 93bd db55 b03d c485 33bd 0a34 7a3d
00000150: 2e4f 8ebd 4402 a3bc c083 cabd b09b dcbc
00000160: 932b 40bd 94f1 8e3c d0a9 32bd baf1 3f3d
00000170: ab60 45bd 521e 3f3d 5485 0cbd 2e8c 343d
00000180: fc3d b6bd 9465 cebd 0a82 7ebd 267f 393d
00000190: 0a3d 8ebd 244a a83c 5619 53bd 94ad 38bd
000001a0: f0ec 2fbd d4b8 9cbc 33a1 6ebd d083 1abc
000001b0: 1e18 4e3d 70a3 f8bc d839 2e3c 1cca 15bd
000001c0: 10dd e23b 02d8 483d 6bfa b43d 3a66 7f3d
000001d0: 9a8f 26bd 7543 b13d 15a4 8e3d ea06 653d
000001e0: cff8 c13d fa68 3a3d b228 03bd 6043 bbbd
000001f0: f4d1 8bbc 1081 89bc 48f9 243c 7ffc 97bd
00000200: 5f09 db3d cc3a 73bd 27e0 c6bd ecfd 94bc
00000210: 10a3 9fbc 980e 3fbd 5cc2 92bd 1412 80bd
00000220: 8467 e33c 6839 8fbd c8cf 45bd 64ca f23c
00000230: 9ca3 b73c bf66 ce3d 0b49 57bd 8fcb d53d
00000240: 0056 9a3b 90c8 97bd 0110 87bd 441c 84bd
00000250: e59d 953d 431d 4abd d619 5b3d be0c 483d
00000260: bc07 af3c 504e aebc cb9d b43d 3a6b 093d
00000270: 46ef 3dbd 9cca b0bd dc27 e1bc 4063 59bc
00000280: 40d6 baba 23ed d3bd 52a0 353d d42f ccbc
00000290: ec0a 3dbd c21d 353d 8a0d adbd 110a ac3d
000002a0: 8c7c f83c a874 483c 8013 1f3c fa77 89bd
000002b0: 45a0 893d 0c05 98bd 8608 b3bd 8a21 043d
000002c0: 7699 cfbd a545 a33d 9a98 003d db9f b3bd
000002d0: a2d2 4b3d 84ad 9dbc cae2 453d 490e 873d
000002e0: 3c82 0bbd 3e31 1e3d 3a7d 503d 33dd ad3d
000002f0: 1562 ac3d e386 bc3d e41d d23c bb12 a6bd
00000300: 54e0 a5bd ee7d 503d 3624 573d 8bfa 9d3d
00000310: d600 d8bd 81ae dc3d bb1b 8e3d 00c0 4837
00000320: da4e 1ebd b6bf 8ebd ae37 8abd 5605 553d
00000330: 9625 6e3d 2034 2fbc 4628 573d 4619 bdbd
00000340: 086d afbd 7f92 a73d 4620 aabd a03c 60bc
00000350: d4b9 f9bc 5e3d 84bd 8f6e ad3d 721d 63bd
00000360: 8ecd 89bd 7add 1b3d ade7 56bd 0a3f 3bbd
00000370: 8095 413c fb60 9d3d 03d5 a83d 7e82 063d
00000380: 57f1 a63d 14cd da3c 4af8 443d d0f5 17bd
00000390: 7091 c1bd 4238 773d 2781 d83d e089 e63b
000003a0: 308a 55bc 8256 cdbd a982 cd3d d665 663d
000003b0: 139c 80bd f1c6 9b3d adbe 6dbd 0860 14bd
000003c0: 3257 793d 85e0 44bd 10fc ccbd 80f6 dbbd
000003d0: 5c0d bb3c 959f 49bd 6378 56bd ef5f ca3d
000003e0: 0d19 933d c79a 6ebd 0ab2 3b3d bf02 aa3d
000003f0: 086e f6bc ea87 7bbd 3024 7c3c 7f03 913d
0.06060735 0.066125564 -0.012317009 0.07787532 0.08012066 -0.07892217 -0.07824092 -0.035992116
0.0967826 0.06531984 -0.06955008 0.0322781 0.06807233 -0.015247986 -0.08150069 0.016710691
-0.09392893 0.076623864 0.083756976 -0.014716931 -0.08162021 -0.0014572293 -0.0100222975 0.07654632
-0.04854122 -0.058937468 -0.0017661676 -0.0062837303 0.008188963 0.030918278 -0.09564391 0.06387188
0.01794947 -0.07381849 -0.09505454 -0.010415725 -0.004532054 -0.08683381 0.011321403 -0.08121878
0.057359435 0.06306366 0.0852154 -0.08817169 -0.09093585 -0.10593564 -0.009654909 0.0007982552
0.011802159 -0.10341004 0.10876047 0.015868753 -0.101270124 -0.020128086 -0.07346242 -0.09132007
0.0445107 -0.0306203 0.033326857 0.09692838 0.026120014 0.034762405 0.08528147 0.015306063
-0.02653785 0.02869045 0.0015751123 -0.07295309 0.07849 0.096692584 -0.0060940906 0.035590358
-0.074291915 0.06117276 0.02466882 -0.06688138 0.012823015 -0.044661373 0.053690992 0.10868942
-0.071787275 0.08610126 -0.04382874 0.061084785 -0.06948696 -0.019898541 -0.098884106 -0.026929706
-0.046916556 0.017449178 -0.043618977 0.046861388 -0.048187893 0.046659775 -0.03430684 0.044079
-0.08898541 -0.10077968 -0.062135734 0.045287274 -0.06945236 0.020543166 -0.051537834 -0.045087412
-0.04295057 -0.019131102 -0.0582592 -0.009430841 0.05031597 -0.03035137 0.010633908 -0.0365697
0.0069233254 0.049034126 0.08836826 0.06235335 -0.040664293 0.086554445 0.0696489 0.055914797
0.094712846 0.04551027 -0.032021232 -0.0914371 -0.017067887 -0.016785175 0.010069199 -0.07421207
0.10695147 -0.059382245 -0.097107224 -0.018187486 -0.019486934 -0.046644777 -0.07165977 -0.06253448
0.027759321 -0.06993371 -0.04829386 0.029637523 0.022416882 0.10078191 -0.052559894 0.10439216
0.004709959 -0.07411301 -0.065948494 -0.06450704 0.073055066 -0.049344312 0.053491436 0.048840277
0.021365993 -0.021277577 0.08819159 0.033549525 -0.046370767 -0.08632395 -0.027484827 -0.013268292
-0.0014254525 -0.103479646 0.044342346 -0.02492515 -0.046152994 0.044217832 -0.08449848 0.084003575
0.030332826 0.012234844 0.009709239 -0.06712337 0.06720022 -0.074228376 -0.0874186 0.032258548
-0.10136692 0.07972268 0.031395532 -0.087707244 0.049761422 -0.019247778 0.048311986 0.065945216
-0.034059748 0.03862118 0.050900675 0.08489456 0.08417145 0.09205415 0.025649019 -0.08109041
-0.08099428 0.050901346 0.052524768 0.07713803 -0.105470344 0.107754715 0.06938883 1.1965632e-05
-0.038649417 -0.0697016 -0.06748901 0.052007042 0.058141313 -0.01069358 0.052528642 -0.09233336
-0.08565718 0.08182239 -0.08306937 -0.013686329 -0.030484118 -0.06457017 0.08468353 -0.055448003
-0.067286596 0.038053013 -0.052467037 -0.045714416 0.011815429 0.07684513 0.08243754 0.03283929
0.08151501 0.026709117 0.04808835 -0.03709966 -0.09451568 0.060356386 0.10571509 0.007035479
-0.013033435 -0.10026266 0.10034687 0.056249462 -0.06279769 0.076063044 -0.05804317 -0.036224395
0.06087417 -0.04806568 -0.100090146 -0.107403755 0.022833519 -0.049224455 -0.052360903 0.09881579
0.071825124 -0.058253076 0.04582409 0.08301305 -0.030081764 -0.061408915 0.015389487 0.07080745

fc3.bias f4 [10]
00000000: 40be 79bc 0109 a93d 0715 843d d1b9 ae3d
00000010: e60a 763d 5d2b acbd 7386 d73d 371b 823d
00000020: 83d9 cd3d a820 82bc
-0.015243113 0.082536705 0.06449323 0.085315354 0.060068987 -0.084067084 0.10523691 0.06352847
0.10051253 -0.015884712
